src/model.pth (torch, 598632 bytes, 7 tensors)

module.enc1.0.weight f4 [64, 1, 3, 3]
00000000: 7b24 bdbd 208b 1b3e 4abc b4bd b194 77be
00000010: e663 0bbe 4f2d a3be 8be4 793e a69d 99be
00000020: addc 01bd 8e03 4b3d b3d0 27be 2787 993e
00000030: 84d4 bbbc c06f afbe fae5 293e 4a4f 613e
00000040: d175 7cbd 7f73 a73e 4aa9 7b3e ca51 dabd
00000050: 10c7 10be 4428 50bd 88b8 87be a57b 58be
00000060: c2ec 6d3e a0db e3bd 1917 9bbe 94e8 8abe
00000070: 8f1b a6be d293 81be 6246 a3bd ad28 0d3e
00000080: e1fc 173e 0f42 ccbd 750b 1fbe 1d3a 003e
00000090: 09ac f93d e916 31be b9b9 7c3d 2ea7 7dbe
000000a0: 8e3c 36be e803 7bbe 2926 c3bd 2542 103e
000000b0: 350a 1bbe 1e55 8c3e c8c3 443e 0a55 ec3d
000000c0: d410 b4be 89ba 2f3e 07c2 b4be 4216 d2bd
000000d0: f666 77bc bcbf 593d 8225 683e 6757 613e
000000e0: 728a 7a3e ba98 5abd 147b aa3e 3a16 a8bc
000000f0: c5e2 0ebe c6ae f73c c300 8f3d a668 cabd
00000100: f1b6 92be 15d5 57be c7c7 aabc ecdb 4cbe
00000110: 08ac 7cbe 362c a03e 958e a53c 08b8 6dbe
00000120: 7c5a a43e 21c0 57be 9b06 81be ad78 243e
00000130: d3f8 053d 21e6 883e cc33 8bbe 041a 483d
00000140: 2f93 4b3e b49f 5d3e c336 67be 0e1c 48be
00000150: 0e0c 68be 6cc4 c43d 198d a63e 1abc debd
00000160: 1975 55be 7346 9d3e dd0a 83be 458a acbb
00000170: 86fe 90bd 9b6b 7cbd 5af6 963e e67e 05be
00000180: 7c8f a13e 44ec c6bc 99ef 813b e24a 78be
00000190: dbf6 2cbe 32e1 3fbe 747b 5fbe 852c 62be
000001a0: 94ba 5abe 98a8 4ebe b6ec 1b3e 5d13 3ebe
000001b0: dcd3 56be 7f0c 933e 0a85 81be 6114 613e
000001c0: b206 90be 6786 b73d 59b7 c9ba b599 913e
000001d0: 72fc d2bc 7ac8 5a3e 8033 b7be 6717 d23d
000001e0: 9b56 473e f766 8b3e 3a46 a7be ef8a 203e
000001f0: f1d6 7e3e cab0 0a3e f822 22be 233f 93be
00000200: ca76 353e f8e5 b5bc 93e3 13be 2e84 bcbd
00000210: f5b8 983c de8a a03e 9635 303e 9bcd b23e
00000220: 8421 f63d 4333 6fbd ab28 5c3e 452d 53be
00000230: 2dc7 9ebe 76f6 113e fe11 28bd b995 1abe
00000240: 0204 473e cdb4 aabb b848 e03a 9071 553c
00000250: 840b 793e bda7 e03d 2c0f 543d 6098 a93e
00000260: d093 a93e 5fd3 90be 7492 21bd 9daf 8d3e
00000270: 7069 cd3d dbe3 a33e 414b 7abe 527f 4a3b
00000280: 43fb 973e 6bd2 07bc 7927 68be 40d5 6bbe
00000290: 3833 32be dba9 4a3e fbab 143e 4a4e a0be
000002a0: 0b6c 5b3d eac8 06be 1b8d 623e 0dc8 e63a
000002b0: 933c 253e e961 113c 398d 1dbe a38d aa3e
000002c0: c947 12be 8d34 8bbe 7758 57bc 8638 3f3e
000002d0: dfb7 053d b3ab 63be d05a 483e e6da f5bc
000002e0: eb99 483c c479 6f3e 5d7c fabc 30ac 1abc
000002f0: 902b e6bd d63a 8f3d ddd1 103e 0f74 9dbe
00000300: b7dd 643e 8400 813c b529 d2bd 3e09 9bbe
00000310: 6a7b 5fbd f7ef 9dbe 01bc 993e a142 0dbd
00000320: bdce e2bb 1273 5a3e a30b c9bd e2a0 493e
00000330: 479b 073e 1bf0 f0bd 6b64 72be 5545 913e
00000340: 73da 913e 1ce5 54bb 7d51 9abe 4ada a43e
00000350: dfdb a93b d676 69be 1eae 3e3e 2bf7 16be
00000360: 2cd6 173e ed20 623e 41d6 90be e730 9cbc
00000370: 4d26 433e 8022 173d 97cb 833d 357e 71be
00000380: 7bc0 13be deca 9b3e 1f8c 913e 0aed 983e
00000390: 9502 a6be 20ad 7ebe 6d74 503e 6518 453e
000003a0: 3bfa 7bbe 89aa 49be 8e0a 273d 109b f7bd
000003b0: 83d4 7dbe 98fe 98be 3939 79be a7ce 223e
000003c0: c9e2 2e3e 2067 973e 43f6 57be 4a6d a33e
000003d0: 943b d8bd 9629 f23d 8445 893e d5c8 82be
000003e0: 3e2e 8abe 218a 483d 418a a63d 60ce 3b3e
000003f0: 8369 7f3e fc13 1c3e b383 c5bd ade5 103e
-0.09235474 0.1518979 -0.08824976 -0.24177815 -0.13612327 -0.31870505 0.24403588 -0.3000309
-0.031704593 0.049563937 -0.16388206 0.29985926 -0.022928484 -0.34264946 0.16591635 0.22002903
-0.061635796 0.32705304 0.24576297 -0.10660131 -0.14138436 -0.05081965 -0.26507974 -0.21140917
0.23234847 -0.111258745 -0.3029106 -0.27130568 -0.324429 -0.2530809 -0.07972409 0.13785048
0.1484256 -0.09973537 -0.15531714 0.12522168 0.12191016 -0.17293896 0.061700556 -0.24770805
-0.17796537 -0.24513209 -0.09528763 0.14087732 -0.15140612 0.2740869 0.1921531 0.115396574
-0.3516909 0.17161001 -0.3530428 -0.102581516 -0.015100231 0.053161368 0.22670558 0.22005998
0.24466875 -0.053368308 0.33297026 -0.020518411 -0.13953693 0.030234706 0.06982567 -0.09883241
-0.28655198 -0.21077378 -0.020847214 -0.20005769 -0.24675 0.3128373 0.02020959 -0.23214734
0.32100284 -0.21069385 -0.25200352 0.16061659 0.032708 0.26738074 -0.27187955 0.048852935
0.19880365 0.21642953 -0.22579484 -0.19541952 -0.22660848 0.09607777 0.32529524 -0.10875721
-0.2084545 0.3071781 -0.25594226 -0.0052655065 -0.070797965 -0.061626058 0.29484826 -0.13036689
0.31554782 -0.024282582 0.00396533 -0.24247316 -0.16891043 -0.18738249 -0.21824437 -0.22087295
-0.21360236 -0.20181501 0.15227017 -0.18562074 -0.20979255 0.2872047 -0.25296813 0.2198043
-0.28130108 0.08961182 -0.0015389725 0.28437582 -0.02575514 0.21365538 -0.3578148 0.1025837
0.19466631 0.27226993 -0.32670766 0.15677999 0.24886681 0.13544002 -0.15833652 -0.28759107
0.17721096 -0.022204384 -0.14442281 -0.09204899 0.018642882 0.31355947 0.17207941 0.3492249
0.12018111 -0.058398496 0.21499889 -0.20622738 -0.31011334 0.14254174 -0.041032784 -0.15096177
0.19435123 -0.0052095414 0.0017111516 0.013027564 0.24320799 0.109694935 0.05177228 0.33124065
0.33120584 -0.28286263 -0.03944631 0.27673045 0.10029876 0.32009777 -0.2444277 0.0030898643
0.29683885 -0.008289914 -0.22671308 -0.23030567 -0.17402351 0.19791357 0.1451873 -0.3130973
0.053569835 -0.1316258 0.2212414 0.0017607227 0.16136388 0.008873441 -0.15385903 0.33311185
-0.14285196 -0.2718853 -0.01314365 0.18673906 0.032646056 -0.22233467 0.19565892 -0.030011605
0.012243728 0.23386294 -0.03057688 -0.009440467 -0.11238778 0.06993644 0.14142556 -0.30752608
0.22350203 0.015747316 -0.10261861 -0.3028049 -0.054561056 -0.3084714 0.30026248 -0.03448737
-0.006921618 0.21332958 -0.09816673 0.19690278 0.13242827 -0.117645465 -0.23671119 0.2837321
0.28486976 -0.0032485193 -0.30140296 0.3219779 0.0051836814 -0.22799239 0.18621108 -0.14742725
0.14827794 0.22082873 -0.28288463 -0.019066287 0.1905758 0.036898136 0.06435316 -0.235833
-0.14428894 0.30428213 0.28427216 0.29868346 -0.32423845 -0.2487073 0.20356913 0.19247587
-0.24607174 -0.1969396 0.04078155 -0.12090123 -0.24788098 -0.2988174 -0.24338235 0.15899144
0.17078699 0.29570866 -0.21090035 0.31919318 -0.105582386 0.11824338 0.2681085 -0.25543848
-0.26988405 0.048959855 0.081318386 0.18340445 0.24942593 0.15241998 -0.0964426 0.14150114

module.enc1.0.bias f4 [64]
00000000: 7e2d f3bd e802 d33a e6be 84bd d9a8 db3d
00000010: 3bf2 623e b131 113e ba46 6f3c 5fa8 013c
00000020: 0259 60be 2d1e 87be cad9 54be 9811 d7bd
00000030: 330b 23be 8f0c 893e 0b6c f33d 0317 9dbe
00000040: f45c 3a3e bb97 163e 7b93 23bd e2b0 09be
00000050: 8766 26be 62b1 9c3e 2f27 1ebe 315c 103e
00000060: d11a 4dbe d60e 593e 5ee2 363d 5f21 6bbe
00000070: 2ddb 16bd 653d e63d 6501 2f3e e52c fc3d
00000080: 13d9 7b3e eb59 dd3c dc3b 1a3d 7510 4dbe
00000090: b0cb bd3c 53e7 a13e 1150 afbb 1682 703b
000000a0: cb14 653e e68a a5bd 2f12 84be 51e5 e53d
000000b0: 4d47 39be 99c5 933e 1976 953e f156 07be
000000c0: 85dd 8fbe a9cd 7a3e 77aa 10be 1568 453c
000000d0: 5299 883e 10d0 c2bd b3aa 663e be90 73be
000000e0: 7efd a1be 1c64 00be 9d75 c1bd 9f27 c13c
000000f0: 329c 313e fd06 413e c045 7c3e 0574 abbe
-0.11873911 0.0016098889 -0.064817235 0.107255645 0.22162716 0.14179112 0.014604265 0.007913678
-0.21908954 -0.2639021 -0.20786205 -0.105014026 -0.15922241 0.26767394 0.11885842 -0.3068162
0.18199521 0.14706318 -0.03993557 -0.13446382 -0.16250049 0.30604082 -0.15444635 0.14097668
-0.20029761 0.21197066 0.044649474 -0.22961949 -0.036830116 0.11242179 0.17090376 0.123132505
0.24594526 0.027020415 0.037654743 -0.20025809 0.023168415 0.316218 -0.005350121 0.003669863
0.22371213 -0.080831334 -0.25795123 0.11225379 -0.18093605 0.28861693 0.29191664 -0.1321676
-0.28098693 0.24492516 -0.14127527 0.012048741 0.26679474 -0.09512341 0.22526054 -0.23785684
-0.31638712 -0.12538189 -0.09446261 0.023578463 0.1734474 0.18850322 0.24635983 -0.33486953

module.enc2.0.weight f4 [128, 64, 3, 3]
00000000: 12cf 3c3b 63c5 8bbc 153d 153d 0866 02bd
00000010: c3e1 cfbc 5cf2 c1bc e5e3 b8bc 2198 9a3c
00000020: 1172 9e3c 2aec ee3c 4294 89bc eaeb ddbc
00000030: ee1e d4bc aa5e 833b 679f 10bd 3b09 02bc
00000040: 445d 9ebc d5a6 d13b c41d feb8 8111 b4bc
00000050: c2f7 38bd 8d78 b3bc f5d6 0abd 13cd 3b3a
00000060: 22b1 11bd f8f3 143d 0dcd 9bbc 1225 b13c
00000070: 1115 033b 1f4c 85bc 2638 25bd 0fca a9bc
00000080: e57d d0bc 6dcc 063d 8a6b 0c3c 071c a2bc
00000090: 8364 bd3c 5a42 bcbc 4a9a ec3c e4c6 b73c
000000a0: 6613 e73c 45f4 623c 5ad8 febb aa89 fd3c
000000b0: 7cbb 0d3d f1ed 963c d173 0b3d 1178 ff3c
000000c0: 43f7 a23b 9989 0f3a 1b60 a8bc 5d3a 0dbd
000000d0: 3d62 aebb 9911 de3c 6720 153c 8ebe f73c
000000e0: 8ed5 c0bc 3326 cf3c 2834 20bd 3c89 01bc
000000f0: 3714 26bd 2fc1 843c a29c 14bc e89c 03bd
00000100: cff6 16bc 1881 2d3c 6f79 36bd 5281 1fbd
00000110: 0dc0 023a 857c 003d 2ebd 103c 5f8a 8fbc
00000120: cacb acbc 8aa2 b83b 9466 eb3c 9efc 00bd
00000130: 17f5 d5bc 493a 3c3c 1451 2bbd 7f46 b4bc
00000140: d7d4 b6bc a965 c93c 78be 1f3b 5657 5cbc
00000150: 3ef2 163c 2b14 603c a18e f03c 00ec 9b3c
00000160: 0b66 a33c 6ba6 0b3d 2cf2 163d 47bd bfba
00000170: 717e b8bb 8507 8e3c a444 61bc 9681 ae3c
00000180: 0f14 183d 2809 bbbc e0be 8c3c a5f7 12bd
00000190: 6639 18bd 1723 03bd 4852 afbc 2746 da3c
000001a0: 3bd5 45bb 132f 163d 9373 d03c a51b 74bb
000001b0: f25a a43c 2c60 c43c 068d db3c d75b 593c
000001c0: 0b97 c7bc 41f9 8fbc d82b 25bd faa8 683c
000001d0: a5bc 20bd 61c8 0abc 8e29 bcbc 4067 21bd
000001e0: 0f08 d3bc 85d9 a63c f852 9f3a 9133 3a3b
000001f0: 106c 0c3d ce9c 8cbc 8614 32bd e4b8 f1bc
00000200: dc53 80bc 0f0d 1bbd 942b e63c 043a 55bb
00000210: 14e1 42bc 4d0f 933c ef0d a63c 4a4a f83c
00000220: ed5d 133d 21a0 543c c34a 1bbc 30ab 30bd
00000230: 54c6 8abc fb07 ac3c 4ca4 aa3c 8a3a a8ba
00000240: 9f60 1cbd f543 8bbb d607 99bb 2c78 963c
00000250: f660 063d df76 e0bb 5dd4 c8b9 d1df ae3c
00000260: bd14 8ebc 0cf8 ac3c d1b6 13bd 46a1 f23c
00000270: 50c6 b7bc 0e4d 413c d4f4 10bd a0e4 ecbc
00000280: 73a5 093d 6f8e c93c aff1 acbc dced b9bb
00000290: b79b 0cbd 7515 2d3b 00f1 a03c 3b72 393c
000002a0: 9637 99bb f9d9 b8bc 8102 1fbd 6ec6 4ebb
000002b0: c011 09bd e201 aebc 73c9 fe3c 0d02 22bd
000002c0: f81d 96bc 630a 29bd c403 003d 546f ab3c
000002d0: 8d5d ae3c 6aa9 d93b 050a 823c f979 b7bc
000002e0: 5836 463c 6c0c bcbc 0b5b f43c 88b1 123d
000002f0: 90b5 c7bc 6767 853c 9443 cebc b771 30bc
00000300: 1a9e d9bc 98db 03bc f30b b23a 515d 87bc
00000310: 52ca b2bb d6dd 27bb 6bf9 af3c fd0a fdbc
00000320: c7cc 14bd 773b d4bc b688 fdbc 7f96 a03b
00000330: eefc 18bd f235 0ebc e1c5 87bc 7ced b93c
00000340: d6cb d43b 420f 3bbd d8f0 3f39 6929 3abd
00000350: 4b26 ab3b 75ab e03b a62b 103c a8ef d13b
00000360: c5fb 51bc b7dc 03bd 6588 bebc a90a 0f3d
00000370: 4822 82bc 9102 363b 624a d73b 49f8 033d
00000380: f668 c63a a678 8fba ee9c 2ebc 2c72 25bd
00000390: 4419 b13c 555c 3abd b082 2cbd b0f1 2cbc
000003a0: cb58 10bd b99e cf3c 7aa0 2ebd 6fb0 983a
000003b0: fe62 f43c 9a0e 413c fb66 d33c 5354 27bd
000003c0: 81c0 993c e45c 16bd 66fd b23c be63 613c
000003d0: b49f e8bc 62ac b0bc 934c 96bb 910b 1fbd
000003e0: c475 c0bc a159 7c3b 33da 983c 52c8 c43a
000003f0: 59a8 553c a34c e63b 37f9 12bd 60d6 913c
0.0028809947 -0.017061895 0.036435205 -0.031835586 -0.025376206 -0.023675136 -0.022569606 0.018871369
0.0193415 0.029165346 -0.016794328 -0.027090032 -0.025893655 0.0040090876 -0.035308268 -0.007936771
-0.019331582 0.0063980618 -0.00012117208 -0.021981003 -0.045158155 -0.021908069 -0.033896405 0.00071640423
-0.035569318 0.03636548 -0.019018674 0.021624122 0.002000157 -0.016271649 -0.04033675 -0.020726232
-0.025450656 0.0329098 0.008570561 -0.019788755 0.023119217 -0.022980858 0.028882165 0.022433706
0.028207492 0.013852184 -0.007777256 0.030949432 0.034602627 0.018424006 0.034045998 0.031185182
0.0049733236 0.0005475521 -0.02055364 -0.034479488 -0.0053217695 0.027108 0.009101964 0.03024223
-0.02353933 0.02528677 -0.03911224 -0.007906254 -0.040546622 0.016205398 -0.009070547 -0.03213206
-0.009214117 0.01058986 -0.0445494 -0.03894169 0.0004987724 0.03136875 0.008834166 -0.017522035
-0.021093268 0.0056346105 0.028735436 -0.031490915 -0.026117845 0.011488506 -0.04182537 -0.022006271
-0.022318287 0.024584608 0.0024375003 -0.013448557 0.0092130285 0.013676683 0.029364886 0.019033432
0.019946119 0.034094255 0.036852047 -0.0014628553 -0.0056303074 0.01733757 -0.013749275 0.021302026
0.037128504 -0.022831514 0.01718086 -0.035880703 -0.037164114 -0.032015886 -0.02140154 0.02664478
-0.003018691 0.036665987 0.025445735 -0.0037247923 0.020062897 0.02397164 0.026800644 0.013266525
-0.024364015 -0.017574908 -0.040325016 0.014200443 -0.039242405 -0.008470626 -0.022969034 -0.039405107
-0.025760679 0.020367393 0.0012155464 0.0028412084 0.034282744 -0.017164614 -0.043476604 -0.029507108
-0.015664987 -0.03785425 0.028096952 -0.00325358 -0.011894483 0.017951632 0.020270316 0.030308861
0.035978246 0.012977631 -0.009478274 -0.043132007 -0.016940273 0.0209999 0.020830296 -0.0012834829
-0.038178083 -0.0042500445 -0.0046701236 0.01836785 0.032807313 -0.006850108 -0.00038305196 0.021346958
-0.017343873 0.021114372 -0.03606302 0.029617917 -0.02243343 0.011798156 -0.035389736 -0.02891761
0.03360505 0.02460405 -0.021111337 -0.005674107 -0.03432819 0.0026410494 0.019646168 0.011318739
-0.004675816 -0.022564875 -0.038820747 -0.0031551379 -0.033464193 -0.021241132 0.031101918 -0.039552737
-0.018324837 -0.04126967 0.03125359 0.020927109 0.021284843 0.00664251 0.015873918 -0.022397028
0.0120979175 -0.022955142 0.029828569 0.03581384 -0.024378568 0.016284658 -0.025178708 -0.010769299
-0.026564647 -0.008047961 0.0013583883 -0.016523989 -0.0054562474 -0.0025614402 0.021481236 -0.030889029
-0.036328103 -0.025907261 -0.030948978 0.004900753 -0.037350588 -0.008679854 -0.016573848 0.02269625
0.0064940257 -0.045668848 0.00018304901 -0.045449648 0.0052230707 0.006856377 0.008799469 0.006406743
-0.012816374 -0.032192912 -0.023258397 0.034922276 -0.015885487 0.0027772526 0.0065701464 0.032219205
0.0015137482 -0.001094599 -0.010657532 -0.040392086 0.021618493 -0.04549821 -0.04211682 -0.01055567
-0.03524093 0.02534424 -0.04263351 0.0011649261 0.02983236 0.011783266 0.02580594 -0.040851902
0.01876855 -0.03670968 0.021849345 0.013756691 -0.028396465 -0.021566574 -0.004586765 -0.03882939
-0.023493655 0.0038505571 0.018658733 0.0015013313 0.0130406255 0.007028179 -0.0358822 0.017802417

module.enc2.0.bias f4 [128]
00000000: 3562 8c3c ef6f 063d 6825 1bbc d575 fcbc
00000010: fc08 31bd b73e 74bc 2715 c03c 33e7 2fbd
00000020: 4ee8 92bc 70e6 873c b6f1 41bc ed28 753c
00000030: 10ce 3cbc 980c e6bc fd45 e63c 2fd8 3fbb
00000040: 7a48 cdbc a321 17bd 4485 05bd c13d 7abb
00000050: 2547 59bc 2406 70bc eeee 59ba fa13 e7bc
00000060: 7cc6 04bd 5652 9e3c 810b c13b 2842 8d3c
00000070: 8a4a 76bc 8fc0 8f3c 380a 6ebc 5c7b aebb
00000080: 5179 30bc a75b 473c 401d 0e3d 8e1e 75bc
00000090: 5db3 2ebd 78c4 b2bc 4dd4 96bc cf55 fe3c
000000a0: c6ad 0f3d 6d96 3bbc 4324 1fbd d52c 873c
000000b0: cffb 8c3c e2c2 b3bc 9c24 d6b8 d5fc f33c
000000c0: 4c5c 113d d9fe 5ebb 9dcf 033c d793 873b
000000d0: 7a1b f9bc 9631 863c c607 fbbc 0439 a1b9
000000e0: a77e 093c 78b8 d539 6d53 15bc 7a66 84bc
000000f0: 1cc9 043c 2999 ebbc a3f7 9fbb 071b a93c
00000100: 2e43 f53c 33b2 c4bb 3161 2abd 2e84 283b
00000110: a183 003d 7a88 c6bb 2ee8 9abc ab50 94bc
00000120: 3b45 fb3c b3f8 dc3c ebe8 0dbd 9ada 013d
00000130: 009a 7a3a 6103 16bd 5602 abbc aa07 313d
00000140: 7b5c fa3b 6345 18bc 4915 0fbd eafe f93b
00000150: 8666 24bc c100 1bbd 8ca8 cdbc a400 09bd
00000160: f3fe 1fbc e726 36bd b428 3d3c 4347 aabb
00000170: 31e6 44bc 71b8 b2bc 05e8 7abc 6e27 f5bc
00000180: 7eb6 873c 98a8 1ebd 3f2b 62bc 0b25 f3bc
00000190: 00ac 893c 6913 6a3b f812 03bc dde3 653c
000001a0: 5264 5b3c 1680 a33c 436f 93bc 8512 d1bb
000001b0: 4b7d 96bb 4c1d 29ba 06da a9bc 375d a93b
000001c0: 0014 32ba 9956 cc3b fc6f 993c 82b4 133d
000001d0: 73c1 873c 326c 6fbb 1cd9 01bd 914b b2bc
000001e0: 073c cebb 1cdc ccbc 0be2 343c b622 12bd
000001f0: 52ca debc 4653 3abd be58 01bd 24a0 04bd
0.017136673 0.032821592 -0.009469368 -0.030817905 -0.04322146 -0.0149075305 0.023447586 -0.042945098
-0.017933037 0.016589373 -0.011837414 0.014963371 -0.0115237385 -0.028082177 0.028109545 -0.0029273143
-0.025058974 -0.036897313 -0.032597795 -0.003818378 -0.013261591 -0.014649902 -0.00083134964 -0.028207768
-0.032415852 0.01932637 0.005891264 0.01724346 -0.01503242 0.017547874 -0.0145288035 -0.005324764
-0.010771112 0.012167848 0.034695864 -0.014960898 -0.042651523 -0.0218222 -0.01841178 0.031046776
0.035077833 -0.0114494385 -0.03885294 0.01650087 0.017209915 -0.021943513 -0.00010211134 0.029783646
0.03548841 -0.0034026413 0.008045104 0.004137497 -0.03040861 0.016381066 -0.030643355 -0.00030750793
0.008392013 0.00040763966 -0.009114129 -0.016162146 0.008104589 -0.028759556 -0.0048818155 0.02064277
0.02993926 -0.0060026883 -0.041596595 0.002571355 0.03137553 -0.0060587497 -0.01890954 -0.018104872
0.03067266 0.026974058 -0.034645956 0.031702615 0.0009559691 -0.036624316 -0.020875137 0.0432202
0.007640419 -0.009293887 -0.03493241 0.007629265 -0.010034209 -0.037842516 -0.025104783 -0.033447877
-0.0097653745 -0.044470694 0.011545349 -0.0051964833 -0.0120177725 -0.021816464 -0.015314107 -0.029926028
0.016566511 -0.038735002 -0.013804256 -0.02968075 0.016805649 0.0035717136 -0.008000128 0.014031378
0.013390617 0.019958537 -0.01799739 -0.0063803815 -0.004592573 -0.0006451204 -0.020733844 0.005168583
-0.00067931414 0.006235909 0.018730156 0.036060818 0.016571736 -0.0036532995 -0.031701192 -0.021764548
-0.006293777 -0.0250073 0.011040221 -0.035677634 -0.027196083 -0.045489572 -0.03157877 -0.032379285

module.dec1.0.weight f4 [64, 128, 3, 3]
00000000: 8967 0a3c e1e3 04bd 8861 b93c 6fda 0ebd
00000010: 6e40 dfbc 33e0 74bc a6da afbc 4f7e 6b3b
00000020: ec14 ac3c f3c1 04bd 9121 08bb 63d2 08bb
00000030: 8d2c c9b9 7f5a 67bc 3deb bfb9 689f 013c
00000040: 75a5 bcbc bba5 8e3c f472 3bbc 7a98 a73c
00000050: 45c4 5c3b f0ff 8e3c af1a 5d3c a8ca 0cbd
00000060: a8bf 82bc 3b92 59bc dcb1 993b 680c 02bc
00000070: 6462 7bbc ec96 643c d09f 913c d32c 5dbb
00000080: 1d25 a6bc 9e34 b3bc 6a7f 6ebc ccb7 e5bc
00000090: 8adf dbbc 6cfb 263b 7040 e7bb f931 afbb
000000a0: dcfa 413c 537f 86bc dc5e 8b3c 5ef9 f2bc
000000b0: 6630 8f3c aab9 10bd 6a11 bb3c cc9f d5bc
000000c0: a952 97bc 88a9 563c 08ab eebc b5a5 f7bc
000000d0: 3295 afbc 2af3 ffbc 99b6 6d3c eb43 f1ba
000000e0: 4669 30bc e1ac 9d3c 5e6a 40ba 485f ffb8
000000f0: d9d1 8d3c cd32 6fbc 7818 74bc bec4 2d3b
00000100: 58da c4bb c5ab 1d3c 68ef b43c b46a ab3c
00000110: d83a 853c 576e eb39 7376 05bd a99b 133c
00000120: 9d26 bf3c 04e0 bbbc d79d bb3c ceef ca3b
00000130: 449d b53c 7551 9f3c 9453 6a3c fefd 53bc
00000140: 7c60 a4bc 3aaf a7bc 3c12 bdbc fac8 2d3c
00000150: 97f5 d6bb e48e 0ebc e088 993b 0cbc 0f3c
00000160: 6871 b3bc 2b3b bb3b 30d2 cebc 15da cc3c
00000170: 04fc 92bc bdbd ca3c e40d cdbc 395d 833a
00000180: 205b abbc 4ccb 62bc 4163 0c3c 7011 33bc
00000190: 91c8 57bc 5d37 a3bc f15e 883c da5e abbc
000001a0: 44aa 9abc dfca 7e3b 121d cfbc 8ea6 bbbb
000001b0: 21ba a4bc 39f4 82bc efe7 7cbc 5ac5 033c
000001c0: d882 903c 5532 c9bb 23a7 a53c 7e4d f0bc
000001d0: 0e16 fb3a 8230 11bd 6067 a63c 6a45 01bd
000001e0: 36aa adbc 5119 0bbc 87e1 d2bb 1cfc ed3b
000001f0: facd e93b 1c5c 0cbc a37e d33c b3ef 22bb
00000200: 77fd ebbc 6fec bd3c f186 ab3c 03dc 12bc
00000210: adb6 8ebc 7ef2 7abc c376 efbc 265a 0abd
00000220: 0b35 60bc b5ad 873c a123 6ebb 5a07 a6bc
00000230: 015b 02bd db0c be3c 3ec5 87bc caf4 51bc
00000240: c8d9 7c3c 26e6 14bc 7828 253c 7d16 cdbc
00000250: b0bd a43b 48a6 503c 5ddc 8f3b 836b e9bc
00000260: f054 953b 5e32 ad3c cf84 b4ba 8ca1 433c
00000270: 6c94 b4bc d530 b73c d5fe b4bc 9186 a4bc
00000280: d1b1 b73c a93e 44bc f79e 8d3b d46b 573c
00000290: c9bd b1bc 37b2 96bc eac3 31bc 667d f5bc
000002a0: f351 393c c3b7 24bc e928 7e3c e2ad 363b
000002b0: ee71 b13c c7ee b1bc f075 57ba c549 a5bc
000002c0: 2298 1fbc abb3 05bd ad30 be3c efe3 023c
000002d0: ca9c 243c cf97 a8bc 7079 06bc cdc2 01bc
000002e0: 165c 053c b2ac db3c 6f92 63bc 99bf 653c
000002f0: 76bc c73c 2c15 37bc 1f07 94bc d1a8 5c3b
00000300: f796 443c 4c3a 85bb 8877 97bb c26b 8e3c
00000310: d003 04bd 9c25 08bd c082 fc3b 300c d03b
00000320: 0653 8abc 8e02 ddbc db60 02ba 4adf b43a
00000330: cdc0 be3c 0b69 0fbd bd7b c3bb 3ef4 24ba
00000340: 23f9 af3b c00c 76bc d82d b33c 7d54 b6bc
00000350: 44fc bd3b 6a0e debc 2511 01bd 6d42 563c
00000360: f5b0 1038 3daa 723b d198 d23b e1fa 98ba
00000370: 0a11 dc3b 4992 b63c c545 c0bc 348a 243c
00000380: 71cd afbb 38d1 7d3c 13b3 40bc 4213 ffbc
00000390: 8062 cebb bdab 283c abcc a2bb b851 923c
000003a0: dbe3 16bc 24a6 10bd 0eb9 433c 1fa3 c3bc
000003b0: 52e2 cbbb 0478 92bb 6b4d e8bc 9ddb a93c
000003c0: 7995 15bc 2057 babc 84ca 143c 2491 623c
000003d0: e5c9 3c3c 9ade d9bc 53fc 7c3c 5817 103b
000003e0: 58e0 dabc 726b b63c 7614 ec3c 6036 583b
000003f0: c1a2 51ba 91e1 0bbd 58c0 41bc 56a4 c33c
0.008447536 -0.032443885 0.022629514 -0.034876283 -0.027252402 -0.014946031 -0.021466564 0.003593344
0.02100607 -0.032411527 -0.002077196 -0.0020877353 -0.000383709 -0.014120697 -0.00036605625 0.007911541
-0.023028115 0.01741301 -0.011440981 0.020458449 0.0033686322 0.017456025 0.013495131 -0.034372956
-0.01596053 -0.013279493 0.004690392 -0.007937528 -0.015343282 0.013951998 0.0177764 -0.003374864
-0.020281369 -0.021875676 -0.014556745 -0.028041743 -0.02683999 0.002547945 -0.007057242 -0.0053465334
0.011839595 -0.016418135 0.017013006 -0.029659923 0.017479133 -0.035333313 0.022835452 -0.026077174
-0.018472033 0.013101943 -0.029134288 -0.030230382 -0.021433447 -0.03124388 0.014508867 -0.0018407082
-0.010767287 0.019247474 -0.00073400687 -0.00012177095 0.017311977 -0.014599514 -0.014898412 0.0026514973
-0.006007474 0.009623473 0.022086814 0.020924903 0.01626341 0.00044904902 -0.032583665 0.00900928
0.023333842 -0.022933967 0.022902412 0.0061931377 0.022169717 0.019448021 0.014302153 -0.012938974
-0.020065539 -0.020469297 -0.023079984 0.010606999 -0.0065600383 -0.00870106 0.004685506 0.008772861
-0.021904662 0.0057138405 -0.02524671 0.025006333 -0.017942436 0.024748677 -0.025031038 0.0010022289
-0.020917475 -0.013842415 0.008568586 -0.01092945 -0.013170377 -0.01992386 0.016646834 -0.020919252
-0.018880017 0.0038878245 -0.025282416 -0.005726642 -0.020108284 -0.015985595 -0.015436157 0.008042658
0.017640516 -0.0061400332 0.020221299 -0.029333826 0.0019156353 -0.03544665 0.020312965 -0.03156034
-0.021199327 -0.008489923 -0.0064355764 0.00726272 0.00713515 -0.008566882 0.025817221 -0.002486211
-0.028807385 0.02318403 0.020938369 -0.008963588 -0.017421091 -0.015316604 -0.029231435 -0.03377738
-0.013684521 0.016562322 -0.0036337154 -0.020267177 -0.03182507 0.02319949 -0.016573545 -0.01281471
0.0154327825 -0.009088075 0.010080449 -0.025035137 0.0050274953 0.012734957 0.004390283 -0.028493648
0.0045572445 0.021142181 -0.001377249 0.011940371 -0.02204343 0.022362152 -0.02209417 -0.020083698
0.022423657 -0.01197783 0.0043219286 0.013148267 -0.021696942 -0.018395526 -0.010849932 -0.029967021
0.011311042 -0.010053578 0.015512683 0.0027874638 0.021660771 -0.021720303 -0.0008219173 -0.020176778
-0.009740861 -0.032642048 0.02321657 0.007988914 0.010047147 -0.0205802 -0.008207664 -0.007919979
0.008139631 0.026815746 -0.013889893 0.014022731 0.024381857 -0.011174481 -0.018069802 0.0033669958
0.011998883 -0.0040657874 -0.0046224035 0.017385367 -0.0322302 -0.033238992 0.0077060163 0.006349109
-0.016885292 -0.026978757 -0.0004973539 0.0013799455 0.023285294 -0.035012286 -0.0059656785 -0.00062924984
0.0053702756 -0.015017688 0.021872446 -0.022257084 0.0057978947 -0.027106483 -0.03151049 0.013077361
3.449708e-05 0.003702774 0.0064269085 -0.0011671447 0.0067158984 0.022286551 -0.023470769 0.010042716
-0.0053650667 0.015491776 -0.011761445 -0.031137113 -0.006298363 0.010294852 -0.004968246 0.017861232
-0.009209598 -0.035314694 0.011945976 -0.023881493 -0.006222048 -0.0044698734 -0.028357228 0.020734603
-0.009129875 -0.022746623 0.009081487 0.0138285495 0.011522745 -0.026595403 0.015441018 0.002198657
-0.026718304 0.02226803 0.02881835 0.0032991394 -0.00079969695 -0.034150664 -0.0118256435 0.023882072

module.dec1.0.bias f4 [64]
00000000: dfd8 033c 94cc 4b3c f794 dbbc 4864 48ba
00000010: 303c 8ebc 700f c23c fad2 c0bb 30cf 813c
00000020: 9e96 1f3c 15b8 343b 778b 9ebc 51ed 973c
00000030: 22c7 5fbb f4f6 e0bc b849 a7ba 4ce4 f23a
00000040: ac84 25bc 1cd7 eabc 9e45 30bc c224 483c
00000050: 251b 12bd 2f20 653c 78a2 97bc d0ba 873b
00000060: 2478 10bd d0ac 3cbb ab8a 0d3c 668e 36bc
00000070: 8d05 b73c 039d 88bc 2b14 d4bc 748d 07bd
00000080: c803 0abc 89ca d53b 98e8 24bb b321 1dbc
00000090: d346 6cbb b961 8dbc 39d6 9b3a 2525 fe3b
000000a0: 1f4b b23c 8464 ba3c 811f d6bc 8d45 4bbb
000000b0: 49fa a73a 9b9a b2bb acb0 a13c 5531 bf3c
000000c0: b0eb e63c bcd3 ccbc 84ef 983c 717f d8bc
000000d0: a26c f73c 371f 0ebd 8074 bd3c 46c2 f5bc
000000e0: a022 11bb fe58 0abc 2761 bebc ed6e dbbc
000000f0: 1d34 843c 022c 75bc 4ff1 a5bc 1fd4 713c
0.008047312 0.012438912 -0.02680443 -0.00076443376 -0.017362684 0.023689002 -0.0058845254 0.015845865
0.0097405 0.0027575542 -0.019353611 0.018545778 -0.0034145792 -0.027461506 -0.0012763059 0.0018531173
-0.010102432 -0.028667025 -0.0107587855 0.012215795 -0.03567042 0.013984724 -0.018510088 0.004142143
-0.035270825 -0.0028789528 0.008639018 -0.011142349 0.022341514 -0.016676432 -0.025888523 -0.033093885
-0.008423753 0.006524388 -0.002516305 -0.009590554 -0.0036052957 -0.017258512 0.0011889405 0.007755893
0.021764336 0.022753008 -0.02613807 -0.0031016797 0.001281568 -0.0054505593 0.019737564 0.023338953
0.028188556 -0.025003307 0.018668897 -0.026427956 0.030203167 -0.034697738 0.02312684 -0.029999863
-0.0022145882 -0.008444069 -0.023239685 -0.026786292 0.01613813 -0.014964106 -0.020256666 0.014760046

module.dec2.0.weight f4 [1, 64, 3, 3]
00000000: f26f 453a 78c1 c33c 8764 893c ce26 003c
00000010: 451d bebc f56b e63c 539f ef3b e059 203c
00000020: 55cb ed3b 1f80 2c3b 2829 14bd dbd4 873b
00000030: 2132 b6bc 1c44 b03c 4fb9 73bc 38da 223d
00000040: e09f 393c 22a4 fabc a976 0ebd e0f5 42bc
00000050: e12d 0fbd 13fd b93a 0283 02bd e421 383b
00000060: a124 95bb c7e1 d9bc 2d5b f73c 8d0b 643c
00000070: d487 563c 8956 c5bc 5cfc e43c 6496 35bd
00000080: 6f0c e43b e05a 1fbd f404 a43c e3de e43b
00000090: 97a4 863c 860d ae3c 531c 1d3c e31b ecbc
000000a0: 5f45 bd3c 7382 5dbc aac9 2d3c 2dc7 f1bc
000000b0: a57e 0cbd a9e7 d73b 5253 b9bb 1b2f 71bc
000000c0: dad3 febc a00a 973b 9936 80bc 69ed b03c
000000d0: 8d3e b4bb a446 213d 3aff bdbc 4cc7 983c
000000e0: 48dc f4bc b994 de3c f1a3 a7bb 9960 e8bc
000000f0: 127f 00bd 4bfd 8f3c f9ce 1bbc a5fb cdbb
00000100: 202a d43b be7d b93b 56d5 a13c 5f42 07bd
00000110: 23a8 72bc 5912 fa3c 452c 3cbb fed3 e83c
00000120: db8c 51bc ceb4 2dbb d371 76bc 58cd f93c
00000130: 9874 64bc 10f8 093d fccc 443c 9b75 34bd
00000140: 35ef 9abb 2cbd b73a 3ffd 8a3c 1ae0 913c
00000150: 3813 063d f5d9 043d 616e a9bc 9ad5 85bc
00000160: 3e5f 09bd 79fc cfbc d7a0 c5bc 2e43 16bd
00000170: a519 fb3c 724b 473c 8206 f53c d054 76bc
00000180: 2be2 013d 131d de3b 891b 1eb9 248d c63c
00000190: 1b01 203d 16a5 373c 645a e8bc 8935 9f3b
000001a0: 80c0 0a3d a5d0 f23c 5e7c f4bc c1e7 063c
000001b0: c525 0ebd 211a 2d3d ddef a839 759f 093d
000001c0: 0595 a23c 6b43 41bc 96ed f3ba 83d0 9dbc
000001d0: 6ecf faba 26fc 1b3d 107b 23bc ef48 87bc
000001e0: 2578 e63c 74c9 bd3b df2a 3a3c eaec 213b
000001f0: 3074 04bd 02ca 18bd b6cc d13c 6c91 953c
00000200: 934c 41bc 5d7b 623c 92bc 033d 761b 543c
00000210: d0dc 05bd 2f52 8f3c 2c99 0cbd d7f9 093d
00000220: 6966 d7bb 03ab 243d 12bc 5e3c f763 f5bc
00000230: b8ba 37bc f99a 08bd 3c5f 06bd d918 f0bc
00000240: 4f9a 69ba e703 89bc c6a7 c03c 3aef f63c
00000250: 40d7 11bc 35ed dabb c9e5 97bc a7ec babc
00000260: f80a f7bc 9184 10bd 85bd c5bc 2f30 9b3c
00000270: 7efe ddbc c8a4 15bc a46b 0cbd 7299 cdbc
00000280: 8469 493c ca60 063d d5ea 12bc 867b a63c
00000290: f7a6 a43c b05e b0bb 58ce 903c 550f f93b
000002a0: f5af acbc 19cc 8ebc d2c2 ec3b 544d 323d
000002b0: 33a0 e03a fb5c ff3a 42d3 fe3b c8a4 1c3d
000002c0: 88c1 2c3d b7e3 a8bc dda3 bc3c 3997 02bd
000002d0: 393c 043d 3002 41bb 2b6c 573c ed09 823c
000002e0: 63d9 3cbd 492f 23bc ead8 453c f6b8 07bd
000002f0: 1c92 933c 3814 dab9 b024 0ebd d750 133b
00000300: b401 283c 01e7 17bd 5667 edbc b55c 243d
00000310: bb7a e13c 5995 8a39 9f46 803c 813e 523c
00000320: 4332 50bc 74dc 95bc 5e5f 16bc a84d 4fba
00000330: 50df 483c c55f 6bbc 18ed 9c3c f200 073c
00000340: ddef 0e3d ec52 ec3c e249 b63c 68c6 643c
00000350: ca5c 203c c9f9 99bc fa22 3dbd d00a f5bc
00000360: 574a e0bc f770 5fbb 62a7 85bc 46af 423c
00000370: 1981 783c d428 22bd 9d2a e63c 5e4c 23bd
00000380: e038 fe3c fdce 2e3d c6a3 783c c618 fd3b
00000390: cf02 debc 0716 043c 20a6 eabc b701 803c
000003a0: 05b4 523c 7040 04bd 2b93 16bb 6904 2cbc
000003b0: 263e 04bd 84dc bd3c a2f0 b63c cc38 283c
000003c0: 9976 06bd 81b5 363d b936 e5bc d36f 3c3b
000003d0: e08a 4abc e35a 913c dbf2 47bc 2e5a cfbb
000003e0: cae4 0bbc 33dd bdbc ee01 0c3d 1f1e 1b3d
000003f0: 5ba8 20bd 9bdc 05bd 4b6a 8bbb dd88 e73c
0.0007531635 0.023895964 0.016771568 0.007821752 -0.023207316 0.02812765 0.007312694 0.009787053
0.007256905 0.0026321483 -0.036172062 0.0041452474 -0.0222407 0.021516852 -0.014875724 0.03975889
0.011329621 -0.030595843 -0.034781132 -0.0118994415 -0.034955863 0.0014189802 -0.03186322 0.0028096372
-0.0045514856 -0.026596917 0.030194843 0.01391877 0.013093907 -0.024089115 0.027952366 -0.044332877
0.00695949 -0.038905025 0.020021893 0.006984578 0.016435904 0.021246683 0.009589273 -0.028821891
0.023104368 -0.013519871 0.0106071625 -0.02951392 -0.034300465 0.0065888953 -0.0056556845 -0.0147207035
-0.031106878 0.004609421 -0.015651034 0.021597581 -0.0055006207 0.03937401 -0.02319299 0.01864972
-0.029890195 0.027170526 -0.005115979 -0.028366374 -0.031371184 0.017576834 -0.009509795 -0.006286102
0.0064747483 0.0056607416 0.019755047 -0.03302228 -0.014810595 0.030526327 -0.002871291 0.028421398
-0.01278993 -0.0026505473 -0.015041786 0.030493423 -0.013943814 0.033683836 0.012011763 -0.04405747
-0.0047282227 0.001401817 0.01696646 0.017807055 0.032733172 0.032434423 -0.020682516 -0.016337205
-0.033538096 -0.025388943 -0.024124546 -0.03668516 0.030651877 0.012163984 0.02991033 -0.015034869
0.03170983 0.0067783683 -0.00015078312 0.024237223 0.039063554 0.011208793 -0.028363414 0.004858677
0.03387499 0.029640505 -0.02984446 0.008233965 -0.03470399 0.042261247 0.0003222217 0.033599336
0.019846449 -0.011795859 -0.0018610235 -0.019264465 -0.0019135305 0.038082264 -0.009978071 -0.01651427
0.028133461 0.0057918373 0.01136276 0.0024707862 -0.032337368 -0.037302025 0.02561031 0.01825782
-0.011798042 0.013823357 0.032162257 0.012946 -0.032681286 0.017495243 -0.034325764 0.03368553
-0.0065734875 0.040202152 0.013594644 -0.029954894 -0.011213951 -0.03335092 -0.032805666 -0.029308723
-0.00089112384 -0.016725494 0.0235175 0.030143369 -0.008901417 -0.0066811093 -0.018542187 -0.022817923
-0.030156597 -0.035282675 -0.024138222 0.018943874 -0.02709889 -0.009133525 -0.03428234 -0.025097582
0.012293223 0.03280715 -0.008967121 0.020322572 0.020099146 -0.0053823814 0.017676517 0.0076007047
-0.021079997 -0.017431306 0.007225373 0.043530777 0.0017137587 0.0019482666 0.0077766487 0.038243085
0.042176753 -0.020616395 0.023027355 -0.0318825 0.032283995 -0.0029450767 0.013148348 0.015873874
-0.046105754 -0.009960004 0.012075642 -0.033135377 0.018014006 -0.00041595264 -0.034702957 0.0022478604
0.010254312 -0.037085537 -0.028979938 0.040127475 0.027524343 0.00026432684 0.015658675 0.012832285
-0.012707296 -0.018293597 -0.009178011 -0.0007907995 0.012260273 -0.014366095 0.019156024 0.0082399715
0.03489672 0.028848134 0.022252027 0.013963319 0.009787748 -0.018795865 -0.046175934 -0.029912382
-0.027379198 -0.0034094432 -0.016315166 0.011882609 0.015167498 -0.039589718 0.028096491 -0.03986775
0.03103298 0.04267787 0.015175765 0.0077239005 -0.027100949 0.008061892 -0.028643668 0.015625818
0.012860303 -0.032288015 -0.0022975903 -0.010499098 -0.032285832 0.02317644 0.02233154 0.010267448
-0.032827947 0.04460669 -0.027980195 0.0028753176 -0.012362212 0.017743533 -0.012203897 -0.006327889
-0.008538434 -0.023176765 0.034181528 0.037870523 -0.039223056 -0.03268109 -0.0042546145 0.028263504
