src/model.pth (torch, 598632 bytes, 7 tensors)

module.enc1.0.weight f4 [64, 1, 3, 3]
0	0xbdc447b7	-0.09583991
1	0xbe713de2	-0.23558763
2	0xbe72fcbd	-0.23729225
3	0xbe36bcec	-0.17845505
4	0xbdbbe31a	-0.091741756
5	0x3d71408c	0.058899447
6	0xbd0e801e	-0.03479015
7	0xbea6b8cd	-0.32562867
8	0x3d735283	0.05940486
9	0xbd960f28	-0.073271096
10	0x3e39f5ce	0.18160173
11	0xbe718040	-0.2358408
12	0x3dec71dc	0.115451545
13	0x3d8f4711	0.06995977
14	0xbe3997b0	-0.1812427
15	0x3db37219	0.08761997
16	0x3e0ec619	0.13942756
17	0x3e9170e7	0.2840645
18	0xbeab423b	-0.33448967
19	0x3e2a0121	0.16601993
20	0x3e3543dc	0.17701668
21	0x3c47980b	0.012182246
22	0xbd89c2d0	-0.06726611
23	0xbe6d5010	-0.23175073
24	0xbe305123	-0.17218451
25	0xbe06f8ae	-0.13180801
26	0x3dbdba0c	0.09264001
27	0x3e8f1f9f	0.27953812
28	0x3e53eb4c	0.20695227
29	0x3e3ea65d	0.1861815
30	0x3e71c831	0.23611523
31	0xbea16e10	-0.31529284
32	0x3d587627	0.052847054
33	0xbe7ba3b2	-0.24574164
34	0x3db0a00e	0.08624278
35	0xbdcc9742	-0.09989788
36	0x3e335393	0.1751235
37	0xbe3e2d0a	-0.18571869
38	0x3e12ef7f	0.14349173
39	0xbe769b2a	-0.24082628
40	0xbbf82e46	-0.0075738756
41	0xbe21f707	-0.1581689
42	0x3dc56cb2	0.096398726
43	0xbe84c34b	-0.25930247
44	0x3e70fa88	0.2353307
45	0x3e34fa03	0.17673497
46	0xbe0304e1	-0.1279483
47	0x3e8647ac	0.26226556
48	0xbe343c1b	-0.17601053
49	0x3bf4abbf	0.007466763
50	0xbe4a5613	-0.19759397
51	0xbcb4308e	-0.021995809
52	0x3e88bbfd	0.26705924
53	0x3debc8ab	0.11512884
54	0x3dc3160d	0.0952569
55	0x3dfe7b42	0.12425853
56	0x3d3ea9c6	0.046548627
57	0xbd8a720f	-0.06760036
58	0xbddc7763	-0.10764959
59	0x3da0eba3	0.07857444
60	0x3d9cf5eb	0.07664093
61	0x3e458fcd	0.19293137
62	0x3e7a744c	0.24458426
63	0xbdc3d9a5	-0.09562997
64	0xbd152d86	-0.036420368
65	0xbda1a0f7	-0.0789203
66	0x3dd68f95	0.10476605
67	0xbe6ba52e	-0.2301223
68	0xbe898c2c	-0.26864755
69	0xbdd6aeb2	-0.10482539
70	0x3dcd94a3	0.10038116
71	0xbe97dfa9	-0.29662827
72	0x3e5b09c5	0.21390446
73	0xbdda7620	-0.10667062
74	0x3dbfc6c8	0.093640864
75	0x3b466019	0.003026968
76	0xbe80a774	-0.25127757
77	0x3d5aac8e	0.053387217
78	0x3e6ad50d	0.22932835
79	0xbe293703	-0.16524892
80	0xbe9310d2	-0.2872377
81	0xbe37a97f	-0.17935751
82	0xbe82064a	-0.25395423
83	0xbda0a209	-0.07843406
84	0xbdfaf45b	-0.12253638
85	0xbe8c55ea	-0.27409297
86	0x3e24fafc	0.16111368
87	0xbd53487d	-0.051582802
88	0xbea6bf7e	-0.32567972
89	0xbe631edc	-0.2217974
90	0xbdc209a2	-0.094744936
91	0x3e92c877	0.28668568
92	0xbde0f92b	-0.10985025
93	0xbe9475b6	-0.28996056
94	0x3e6f7b5b	0.233869
95	0xbc28d514	-0.010304708
96	0x3e081393	0.13288717
97	0x3db5319a	0.08847351
98	0xbe1eecd3	-0.15520029
99	0x3e3dbecb	0.18529813
100	0xbde427e9	-0.11140425
101	0xbdc43fce	-0.09582482
102	0x3e49995b	0.19687407
103	0x3eaab2cd	0.3333954
104	0x3e0d47ed	0.13796969
105	0xbdb1e95b	-0.08687087
106	0x3d89e7eb	0.06733688
107	0xbd2e0d5e	-0.042493217
108	0xbe7dcfe4	-0.24786335
109	0x3e873d1d	0.26413813
110	0xbcd6df24	-0.026229449
111	0x3e9c7170	0.30555296
112	0xbd70aa70	-0.058756292
113	0xba96a0dd	-0.0011492033
114	0x3ea9d3d4	0.33169425
115	0x3e16c0eb	0.1472203
116	0xbe828cf7	-0.25498173
117	0x3e34a611	0.17641474
118	0xbe93e1fb	-0.28883347
119	0x3dfd51a8	0.1236909
120	0xbe4e9166	-0.20172653
121	0x3dcf461d	0.10120795
122	0xbe7b1c02	-0.24522403
123	0xbe9ae214	-0.3025061
124	0xbde46263	-0.11151578
125	0xbdecebfa	-0.115684465
126	0x3be41f86	0.0069617657
127	0xbeaeb22f	-0.34120318
128	0x3e9539f2	0.2914577
129	0x3dc72000	0.097229004
130	0x3dc4e875	0.0961465
131	0x3d420358	0.04736647
132	0x3c835b29	0.01603468
133	0x3ea409de	0.32038778
134	0xbe79bd4c	-0.24388617
135	0xbe5ae4a0	-0.21376276
136	0x3ea6abdd	0.32552996
137	0x3d29ba40	0.041437387
138	0xbe822ae6	-0.25423354
139	0xbe03a8b3	-0.12857322
140	0xbdd67573	-0.104716204
141	0x3e91735c	0.28408325
142	0x3e8bc263	0.27296743
143	0xbe358e23	-0.17730002
144	0x3e61ace4	0.22038609
145	0xbe5bab4b	-0.21452062
146	0xbe1d1ffc	-0.15344232
147	0x3eab2bb6	0.33431786
148	0x3c773151	0.015087442
149	0xbe4d654e	-0.20058176
150	0x3e8e403f	0.2778339
151	0xbe7af491	-0.24507357
152	0x3cbf97af	0.023387758
153	0x3e88592e	0.2663054
154	0xbe38564b	-0.18001668
155	0xbdb76922	-0.08955599
156	0xbe2d0fda	-0.16900578
157	0xbe2937a0	-0.16525126
158	0x3e393356	0.1808599
159	0x3c72f15a	0.0148280505
160	0x3e6625c6	0.22475347
161	0x3e5f4844	0.21804911
162	0xbe9e201f	-0.3088388
163	0xbea9a3f9	-0.33132914
164	0x3e2d5ed0	0.169307
165	0xbe30b9bf	-0.17258357
166	0x3e3bfd9f	0.18358468
167	0x3e9013ba	0.2814005
168	0x3b913592	0.004431435
169	0xbe45b4bf	-0.1930723
170	0x3d349d7d	0.044095505
171	0xbda679b4	-0.08128682
172	0xbe7618de	-0.24032924
173	0xbe15e0f3	-0.14636593
174	0xbe91f806	-0.2850954
175	0x3e81d28b	0.25355944
176	0x3bfca38d	0.0077099265
177	0x3e30a4e3	0.172504
178	0x3d50d347	0.05098274
179	0xbc837ae9	-0.016049819
180	0xbe41e508	-0.18935025
181	0x3e94802e	0.29004043
182	0x3e2e34a4	0.17012268
183	0x3cf91c69	0.030409055
184	0x3e98b690	0.29826784
185	0x3e6ad27a	0.22931853
186	0x3dadba42	0.084827915
187	0xbe4b30dd	-0.19842859
188	0x3e6d8c4a	0.23198047
189	0xbe268d47	-0.1626483
190	0xbe1e7c58	-0.15477121
191	0x3e4add24	0.19810921
192	0x3cd2716b	0.025688848
193	0x3d420599	0.04736862
194	0x3ce06ea8	0.027396515
195	0xbe3f8db1	-0.18706395
196	0x3e060c38	0.13090599
197	0x3e98c1e6	0.29835433
198	0x3df858d4	0.121263176
199	0xbe8e5a37	-0.27803203
200	0x3e24df62	0.16100839
201	0xbddb825c	-0.107182235
202	0xbe246125	-0.16052683
203	0x3ea49a74	0.32149088
204	0xbb6b42d9	-0.0035897999
205	0x3cd97c5f	0.026548563
206	0x3bf4f991	0.0074760397
207	0x3dce37aa	0.10069211
208	0xbd00b092	-0.03141839
209	0x3e36723b	0.17817013
210	0x3e899322	0.26870066
211	0xbc3bfd35	-0.0114739435
212	0x3e448e02	0.19194797
213	0x3c97469d	0.018466288
214	0x3c9f41cf	0.01944056
215	0x3e8ac5e9	0.27104118
216	0xbe9d46bc	-0.3071803
217	0xbe61975e	-0.22030398
218	0xbe7d7c77	-0.24754511
219	0xbe0520fd	-0.13000865
220	0x3de5a267	0.112126164
221	0xbe29d91d	-0.16586728
222	0x3e9e5cd9	0.30930212
223	0xbe8e17e6	-0.27752608
224	0x3e536ea4	0.20647675
225	0x3e890f32	0.26769406
226	0xbe9c1ffb	-0.3049315
227	0x3dcef69f	0.10105633
228	0x3d1657a7	0.036704686
229	0x3e017574	0.12642461
230	0xbe3318c4	-0.17489916
231	0x3dad98e2	0.08476426
232	0x3e8d7c99	0.27634123
233	0x3de9b111	0.11410726
234	0xbe4604e7	-0.19337808
235	0x3d0b8c54	0.034069374
236	0xbde47b85	-0.11156372
237	0x3daf1288	0.085484564
238	0x3e076d40	0.1322527
239	0x3ea3da63	0.32002553
240	0x3d975c99	0.073907085
241	0xbe03199c	-0.12802738
242	0xbd333549	-0.04375199
243	0xbe7bf7fb	-0.24606316
244	0xbe9b6617	-0.30351326
245	0x3e1d60dd	0.15368982
246	0x3db51623	0.08842113
247	0xbe4f1591	-0.2022307
248	0xbd74aaf5	-0.05973335
249	0xbe021d9e	-0.1270661
250	0x3da793a2	0.081824556
251	0x3d808d5e	0.06276964
252	0xbde67dee	-0.11254488
253	0x3de289af	0.11061417
254	0xbdacabf8	-0.08431238
255	0x3e8dfee6	0.27733535

module.enc1.0.bias f4 [64]
0	0xbe16b8c4	-0.1471892
1	0xbdf885b5	-0.121348776
2	0x3e26095b	0.16214506
3	0xbe80e5df	-0.25175378
4	0xbd4c87c4	-0.049934164
5	0xbd861704	-0.06547359
6	0x3cfc9419	0.030832337
7	0xbe822e0e	-0.25425762
8	0x3d83df6d	0.064390995
9	0xbe9b1295	-0.30287614
10	0x3e8f89b1	0.28034738
11	0xbe576010	-0.21032739
12	0xbe4ef01e	-0.20208785
13	0x3d9543ec	0.07288346
14	0xbe912061	-0.28345016
15	0x3e51bed2	0.20482948
16	0xbdf8a804	-0.121414214
17	0xbe7e047c	-0.24806398
18	0xbc155712	-0.009114997
19	0xbded3d11	-0.11583913
20	0x3d767432	0.060169406
21	0xbe26cb66	-0.16288528
22	0xbe5aa51f	-0.21352051
23	0xbe4bbd0f	-0.19896339
24	0x3e9a69f9	0.30158976
25	0x3af9e6e9	0.0019066009
26	0xbd923ff9	-0.07141108
27	0x3ea5dedd	0.32396594
28	0xbe022288	-0.12708485
29	0x3dfa2888	0.12214762
30	0xbdf2c586	-0.11854081
31	0x3d44732e	0.047961406
32	0x3dc8a07c	0.09796235
33	0xbe29ab03	-0.16569142
34	0x3d69712d	0.0569927
35	0x3e105268	0.14093935
36	0x3ea13545	0.31485954
37	0xbe33f9bd	-0.17575736
38	0xbe1e50dc	-0.15460533
39	0xbe43309a	-0.19061509
40	0x3e83c854	0.25738776
41	0x3dc38fb9	0.09548897
42	0xbe8a0950	-0.2696023
43	0x3ea46f18	0.32116008
44	0xbce404e1	-0.027834358
45	0xbdb1d970	-0.08684051
46	0xbd3587b9	-0.04431889
47	0xbe254b91	-0.16142108
48	0x3dddc125	0.10827855
49	0x3e6688f5	0.22513182
50	0x3e5590c6	0.20856008
51	0xbe21ea51	-0.15812041
52	0xbe13d2c2	-0.14435866
53	0xbdcc4461	-0.0997398
54	0xbe047072	-0.1293352
55	0xbea36aca	-0.3191741
56	0x3d1f0d9c	0.03883134
57	0x3d32987f	0.043602463
58	0xbea07f85	-0.3134729
59	0x3e9edfc5	0.31030098
60	0xbd0a8508	-0.033818275
61	0xbea6b0c3	-0.32556733
62	0x3e9c54a8	0.30533338
63	0xbe1635f7	-0.14669023

module.enc2.0.weight f4 [128, 64, 3, 3]
0	0x3c5a6944	0.013330761
1	0xbca6da99	-0.020367907
2	0x3ab49a63	0.0013778921
3	0xbccfa7e8	-0.025348619
4	0x3cc9c8fa	0.024631966
5	0x3d4af3b0	0.049548805
6	0x3cca0597	0.024660869
7	0xbce9b386	-0.028527986
8	0x3d18d102	0.0373087
9	0x3ba0c782	0.0049065957
10	0x3cb26793	0.021777904
11	0x3c7a5870	0.015279874
12	0x3d114a4b	0.035471242
13	0x3c31c20e	0.010849489
14	0x3ceed35a	0.029153515
15	0x3cfc7708	0.030818477
16	0x3c548b7f	0.012972712
17	0x3c863669	0.016383367
18	0x3c75941e	0.014988927
19	0x3ce7cb93	0.028295314
20	0x3caecae3	0.021336978
21	0xbc8d4575	-0.017245034
22	0x3c13394d	0.00898583
23	0xbaddf74e	-0.0016934664
24	0xbc63d2bf	-0.013905226
25	0xbc2d2711	-0.010568396
26	0x3ce3dcaf	0.027815191
27	0x3b1d579f	0.0024008525
28	0x3baadd12	0.005214342
29	0x3ba7799c	0.0051109325
30	0x3d25f121	0.04051316
31	0xb9e47c45	-0.00043580137
32	0x3d15be1d	0.03655826
33	0xbc17c5d3	-0.009263474
34	0x3cbcfe2a	0.023070414
35	0x3d3a9eaa	0.04556147
36	0x3c34c907	0.011034257
37	0x3c2cae0e	0.010539545
38	0xbc621266	-0.013798332
39	0xbcf6e3f9	-0.030138003
40	0x3a504567	0.0007944912
41	0x3a434da4	0.0007450229
42	0xbcedd271	-0.02903101
43	0x3d1a8b1f	0.037730332
44	0x3c93470a	0.01797821
45	0x3d2571b8	0.040391654
46	0x3c2686ce	0.010163976
47	0x3bc3c20c	0.00597406
48	0x3b4e465b	0.003147504
49	0x3cd68340	0.026185632
50	0x3c8e531e	0.017373618
51	0xbce4f100	-0.027946949
52	0x3d4cb125	0.049973626
53	0xbb961268	-0.004579831
54	0x3c841a9f	0.016125975
55	0x3d654fe2	0.055984385
56	0xbcaaaff9	-0.020835863
57	0x3d66ddca	0.05636386
58	0x3ce297c3	0.027660256
59	0x3d097ec6	0.033568166
60	0xbcb22ae1	-0.021748962
61	0xbc2be31d	-0.01049116
62	0x3d692165	0.056916613
63	0x3c83fca2	0.016111676
64	0x3c61cad9	0.013781273
65	0x3d6053b4	0.054767326
66	0xbc099b67	-0.008398867
67	0x3ba02abe	0.0048879078
68	0xbbe24433	-0.0069051026
69	0xbc7f006e	-0.015564067
70	0x3d490ebb	0.049086314
71	0x3d218ed2	0.039442845
72	0x3d1c3166	0.038133048
73	0x3d42f5d4	0.04759772
74	0x3c5f3621	0.013623745
75	0x3d2ef546	0.04271438
76	0xbc7be13d	-0.015373525
77	0xbbcc47b1	-0.006234132
78	0x3d2f0445	0.04272868
79	0xbc892fd5	-0.01674644
80	0xbc911964	-0.017712303
81	0x3d2d7d92	0.04235608
82	0xbc8fa6cc	-0.01753559
83	0x3cfad90b	0.030621072
84	0xba385067	-0.0007031024
85	0xbcd67d18	-0.026182696
86	0xbc54fbd4	-0.012999494
87	0xbc5be8fb	-0.013422246
88	0x3d2caa25	0.04215445
89	0x3c0b8498	0.0085154995
90	0x3d4b4db3	0.049634647
91	0xbb58024a	-0.0032960349
92	0x3ada3541	0.0016647951
93	0x3d1b1864	0.037865058
94	0x3d325b9d	0.0435444
95	0x3d504dc3	0.05085541
96	0x3c8c7ac1	0.017148377
97	0xb9a732c0	-0.00031890534
98	0xbba62162	-0.0050698975
99	0xbcdf951f	-0.027292786
100	0xbc293a60	-0.010328859
101	0x3d1c568d	0.03816848
102	0x3c8b5b24	0.017011233
103	0x3d24860c	0.0401669
104	0xbbffa4c0	-0.007801622
105	0xbd014315	-0.031558115
106	0xbb5ee31d	-0.0034009882
107	0xbc2f43fb	-0.01069736
108	0xbbb266b6	-0.005444373
109	0x3c3da1b2	0.011574196
110	0xbc8c21f9	-0.017106043
111	0x3c07c683	0.008287075
112	0xbb864611	-0.004097708
113	0x3cc3720c	0.023858093
114	0x3caa788e	0.020809438
115	0xbcb82398	-0.02247791
116	0x3d3b5104	0.04573156
117	0x3cdb2f21	0.026755871
118	0xbcbc5dcc	-0.022993945
119	0x3afdb76f	0.0019357036
120	0x3d260f80	0.040542126
121	0x3d0d1af9	0.03444955
122	0x3b286513	0.002569501
123	0x3d15a57e	0.03653478
124	0xbc2992b2	-0.010349916
125	0x3b4d2e72	0.00313082
126	0x3d14404f	0.036194142
127	0x3cdad9c3	0.026715165
128	0x3be6faf0	0.007048957
129	0xbcf18f4d	-0.029487276
130	0x3c86019e	0.016358193
131	0x3caa3532	0.020777319
132	0xbd1817e3	-0.037132155
133	0xbae49e77	-0.0017442246
134	0xbbc135e2	-0.005896316
135	0x39ee60bb	0.00045466967
136	0xbc4c2f4f	-0.012462451
137	0xbceac52d	-0.028658474
138	0x3d35beab	0.04437129
139	0x3ce89ddf	0.028395591
140	0x3c51aefd	0.012798068
141	0xbbad34f3	-0.005285853
142	0x3be2b8a5	0.006918984
143	0x3d31639e	0.043307893
144	0x3c242db4	0.010020662
145	0x3c1a39c2	0.009413185
146	0xbc83ebe6	-0.016103696
147	0x3c7d45f4	0.015458573
148	0xbcad5b15	-0.021161595
149	0x3cdf7c25	0.027280876
150	0x3c50503f	0.012714445
151	0x3d30489a	0.04303799
152	0x3d0febf6	0.03513714
153	0xbcbdc97d	-0.023167366
154	0x3d40c598	0.04706344
155	0xbcfeae30	-0.031088918
156	0xbd035ab3	-0.03206892
157	0xbcb7067b	-0.022341957
158	0xbb26eb51	-0.002546985
159	0x3d212100	0.039338112
160	0xbc896055	-0.016769568
161	0xbce75b23	-0.0282417
162	0x3bec9f08	0.0072211064
163	0x3d156477	0.036472764
164	0x3bd9438c	0.0066303667
165	0xbc0b901a	-0.008518243
166	0x3cdc4e06	0.026892673
167	0x3aac318a	0.0013137322
168	0xba668d77	-0.00087948836
169	0xbc87a64e	-0.016558792
170	0x3bf9b332	0.0076202387
171	0x3b98af79	0.00465959
172	0xbc773824	-0.015089069
173	0x3d3cce8b	0.046095412
174	0xbd197831	-0.03746814
175	0x3d1fda87	0.039026763
176	0x3d1564f6	0.036473237
177	0xbb21fb2a	-0.0024716356
178	0x3cf5be41	0.029997947
179	0xbcf1190a	-0.029430885
180	0x3d00f009	0.031478915
181	0x3ad8064c	0.0016481369
182	0x3c89723f	0.01677811
183	0xbcb00a94	-0.021489419
184	0x3d4eb3d1	0.050464455
185	0x3d20784b	0.03917722
186	0x3d1cfc6a	0.03832666
187	0xbbf1e584	-0.0073820967
188	0xbc4515c6	-0.012029117
189	0x3ca51f1d	0.020156438
190	0x3c8d78a6	0.017269444
191	0xbd04a50a	-0.032383956
192	0x39c0bca5	0.00036761645
193	0xbc74c4d5	-0.014939507
194	0xbc549944	-0.0129759945
195	0x3cbdefb6	0.023185592
196	0xbbbda01c	-0.005786909
197	0x3c47c44f	0.0121928
198	0xbcd87f28	-0.02642782
199	0x3cae2334	0.02125702
200	0xbd3c3ce0	-0.045956492
201	0x3d3bcc06	0.04584887
202	0xbc82d1bc	-0.01596915
203	0x3d184e47	0.037184026
204	0x3cfbc21d	0.030732209
205	0xbc615cbd	-0.013755021
206	0x3d1c0ac8	0.03809622
207	0xbc82657d	-0.015917534
208	0xbc707884	-0.014677171
209	0xbc7bfd45	-0.015380208
210	0x3c91be1a	0.017790843
211	0x3d52f19f	0.05149996
212	0xbca60a9d	-0.020268733
213	0x3b22d61c	0.0024846857
214	0x3c86e7c3	0.016467934
215	0xbc1e69aa	-0.009668747
216	0x3c1b607a	0.009483451
217	0x3b1c68f7	0.0023866275
218	0x3c24ba2c	0.010054152
219	0xbc2ec6de	-0.010667531
220	0xbb8a4d5a	-0.004220647
221	0x3c1c8680	0.009553552
222	0xbcda5ea8	-0.026656464
223	0x3d085a96	0.033289514
224	0x3cf3925d	0.029732877
225	0x3b052abd	0.0020319663
226	0x385903b0	5.1740266e-05
227	0x3c910d2a	0.017706472
228	0x3c75bb2f	0.014998241
229	0xbbfc1049	-0.007692371
230	0xbc9a3129	-0.01882227
231	0x3d64241c	0.0556985
232	0x3d0f2209	0.034944568
233	0x3d51115f	0.051041957
234	0x3cbb7921	0.022884907
235	0x3c9592a3	0.018258398
236	0x3c934239	0.017975913
237	0xbcda3aad	-0.026639307
238	0x3cf68fb4	0.03009782
239	0x3d0cadf4	0.034345582
240	0x3a0fc620	0.000548454
241	0x3cfbf45a	0.030756164
242	0x3d364c75	0.04450651
243	0xbbb34392	-0.0054707015
244	0x3d481bc8	0.04885462
245	0xbbecfc39	-0.0072322157
246	0x3d2e872c	0.04260938
247	0xbc3c1270	-0.011479005
248	0xbb8e1df8	-0.0043370686
249	0xbc64386e	-0.0139294695
250	0x3c22bee6	0.009933209
251	0xbcbf224d	-0.023331786
252	0xbca19715	-0.019725362
253	0x3c141800	0.009038925
254	0xbcc9dddd	-0.024641925
255	0x3ce4e00f	0.02793887

module.enc2.0.bias f4 [128]
0	0x3d2ba760	0.041907668
1	0xbbef6c65	-0.007306623
2	0xbbaffb99	-0.005370569
3	0xbce6bd76	-0.028166514
4	0x3cd85868	0.026409343
5	0x3b919d17	0.0044437754
6	0xbd301c7c	-0.042995915
7	0xbca485ad	-0.020083273
8	0x3cd0fea8	0.025512055
9	0xbcc92a77	-0.024556382
10	0xbcabbb5d	-0.020963365
11	0xbce534ac	-0.027979217
12	0x3ce380d3	0.02777139
13	0x3c9f4226	0.019440722
14	0x3bf437da	0.007452947
15	0xbd161f65	-0.036651034
16	0xbb212eae	-0.0024594474
17	0x3a8f6979	0.0010941467
18	0xbd1dfd63	-0.038571727
19	0x3ce72a30	0.028218359
20	0xbc1560c2	-0.009117307
21	0xbcb40ece	-0.021979716
22	0x3c71c6eb	0.014756898
23	0x3d03f689	0.032217536
24	0x3c870ed7	0.016486568
25	0x3cdce9bc	0.026966922
26	0x3d3c2de0	0.045942187
27	0xbd3a04f1	-0.04541487
28	0x3ba54938	0.0050441287
29	0x3bef2380	0.007297933
30	0xbb73c569	-0.0037196523
31	0x3d42fbed	0.047603536
32	0xbc0087ac	-0.007844847
33	0x3d22eeab	0.039778393
34	0x3c6e3f1a	0.014541412
35	0xbcd4d601	-0.025980951
36	0xbcffefc8	-0.031242266
37	0xbcf5719a	-0.029961396
38	0xbbb8112f	-0.005617283
39	0xbd01aa5a	-0.0316566
40	0xbd05663e	-0.03256821
41	0x3cc80f48	0.02442135
42	0x3bc03da3	0.0058667227
43	0x3cd165e3	0.025561279
44	0x3d254eb0	0.040358245
45	0xbc2c8243	-0.010529104
46	0xbc5e2e9a	-0.013560915
47	0xbcff4672	-0.03116152
48	0x39fd9f34	0.00048374536
49	0x3cf11bde	0.029432233
50	0x3ba5dd34	0.00506177
51	0x3cff125f	0.03113669
52	0xbce0bc20	-0.027433455
53	0xbc80978c	-0.015697263
54	0x3cea1b37	0.02857743
55	0xbc9e7b4e	-0.019345906
56	0xbbc4b3df	-0.0060028876
57	0xbd1780ff	-0.036988255
58	0xbbaa4081	-0.0051956777
59	0xbada07a8	-0.0016634362
60	0xbcbd32a9	-0.023095446
61	0xbd3267c5	-0.043555994
62	0x3cc42250	0.023942143
63	0x3d1d28c3	0.03836895
64	0x3c06e62e	0.00823359
65	0x3cb88663	0.022525018
66	0xbc2d1834	-0.0105648525
67	0xbc4faa0e	-0.012674822
68	0x3c52db12	0.012869613
69	0x3cf25b36	0.029584508
70	0x3ca4f84b	0.020137927
71	0x3ce43a20	0.027859747
72	0x3c26b041	0.010173858
73	0x3c684e39	0.014178806
74	0x3c2d4bf1	0.010577188
75	0xbce9119a	-0.028450776
76	0x3cb1d925	0.021709988
77	0x3cda85b9	0.026675092
78	0x3cd0348a	0.025415678
79	0x3cc0a957	0.023518248
80	0x3bfd32e2	0.007727013
81	0x3cbc21aa	0.022965271
82	0x3c8d924d	0.017281676
83	0x3cbce334	0.023057558
84	0x3c6c22de	0.01441261
85	0x3cc8dd9d	0.024519736
86	0x3c0bc14f	0.008529975
87	0x3cf81bbd	0.030286664
88	0x3cab42a7	0.020905806
89	0x3c99d27c	0.018777125
90	0x3c98474a	0.01858868
91	0xbd059aaf	-0.03261822
92	0x3c77240c	0.015084278
93	0xbb5d14b6	-0.0033734269
94	0xbd26f344	-0.04075934
95	0xbc510141	-0.012756647
96	0xbd1d2b14	-0.03837116
97	0x3cda4a32	0.026646707
98	0x3cd8fafa	0.026486862
99	0xbcde90a6	-0.027168583
100	0x3b48edb1	0.0030659253
101	0xbc7ffb6f	-0.015623911
102	0xbcbd0592	-0.023073945
103	0x3ca1d1e1	0.019753398
104	0xbcd042c7	-0.025422467
105	0x3b568b64	0.0032736892
106	0xbcf42b21	-0.029805722
107	0xbd33645a	-0.043796875
108	0x3cc76eea	0.02434488
109	0xbd37856e	-0.044804983
110	0x3c16f79f	0.009214311
111	0xbd0f81c3	-0.03503586
112	0xb8a792b2	-7.990505e-05
113	0x3cbb93ac	0.022897564
114	0xbbb25d29	-0.0054432345
115	0xbb68446a	-0.0035441169
116	0x3c571da6	0.013129627
117	0xbcee363a	-0.029078592
118	0xbc8755af	-0.01652035
119	0xbd187117	-0.037217226
120	0x3cae27b0	0.021259159
121	0xbb6b433c	-0.003589823
122	0xbcbd9c20	-0.023145735
123	0xbcb736ca	-0.022364993
124	0x3d29a616	0.041418158
125	0x3cbde97f	0.023182629
126	0xbd3ebbf9	-0.046565983
127	0xbd2b4083	-0.04180957

module.dec1.0.weight f4 [64, 128, 3, 3]
0	0x3a7ec01d	0.0009717958
1	0xbc63e3c9	-0.013909289
2	0xbccbb523	-0.024866646
3	0xbce98101	-0.028503897
4	0x3c3fb66d	0.011701209
5	0xbce7df26	-0.028304648
6	0xbcc1a0a5	-0.023636172
7	0xbcba15ec	-0.022715531
8	0xbc4f10e0	-0.012638301
9	0x3b0d351e	0.0021546553
10	0x3ca63161	0.020287218
11	0xbc8aeb96	-0.01695804
12	0x3c171bad	0.009222907
13	0x3c321d32	0.0108712185
14	0x3ca81016	0.020515483
15	0x3becb047	0.0072231623
16	0xbc5c3088	-0.013439305
17	0x3c6b1988	0.014349349
18	0xbcef8692	-0.029238973
19	0xbca70acb	-0.020390889
20	0xbc5e350e	-0.013562454
21	0xbced66f7	-0.028979762
22	0xbcd78d36	-0.026312452
23	0xbc59e26f	-0.013298615
24	0xb91cd81e	-0.00014957829
25	0xbbb85890	-0.005625792
26	0xbd0324d2	-0.032017536
27	0x3c13d29d	0.009022382
28	0x3bcff94b	0.0063468567
29	0x3cc855f8	0.024455056
30	0x3cba4b63	0.022741025
31	0x3c288250	0.010284975
32	0xbc5af9e7	-0.013365245
33	0x3ca4f0b6	0.020134311
34	0x3bdc055f	0.0067145075
35	0x3c603bd8	0.013686143
36	0xbcb213b9	-0.02173792
37	0x3c1a5ac8	0.009421058
38	0x3cc6d489	0.024271267
39	0xbcf2ee59	-0.029654669
40	0x3b966b1c	0.004590405
41	0x3cc24bd6	0.023717802
42	0x3c9f6fb3	0.019462442
43	0xbb427ea8	-0.0029677544
44	0xbb87f06b	-0.004148533
45	0x3c1c7727	0.0095498925
46	0xbc6fadd5	-0.014628847
47	0xbca4ba14	-0.02010826
48	0x3c7d52c4	0.015461627
49	0x3c6c298a	0.014414201
50	0x39a0b08b	0.00030649113
51	0x3c09592f	0.008383079
52	0xbb01f2b0	-0.001982849
53	0xbcceea19	-0.02525811
54	0x3d07d531	0.0331623
55	0x3cb00f5f	0.021491705
56	0x3cbdb8ff	0.023159502
57	0x3cdc1b46	0.026868474
58	0x3c2ed4ed	0.010670883
59	0x3a396587	0.00070723187
60	0x3c8ea888	0.017414346
61	0x3c8584d4	0.016298689
62	0x3d0080a9	0.0313727
63	0xbc8d2808	-0.017231002
64	0x3c09381c	0.008375194
65	0xbaf3da91	-0.0018604567
66	0xbc58000a	-0.013183603
67	0xbcadce00	-0.021216393
68	0xbcbc3a05	-0.022976885
69	0xbc8aad21	-0.016928257
70	0xbccce335	-0.025010685
71	0xbb12787d	-0.0022349649
72	0xbc57ab4a	-0.013163397
73	0xbcf49e3e	-0.029860612
74	0xbcd5abdd	-0.026082927
75	0x3c8e6302	0.017381195
76	0xbc25cbd2	-0.010119395
77	0x3ab4033c	0.0013733874
78	0xbcdc7f3a	-0.026916135
79	0xbbbbaa14	-0.005727062
80	0xbd084a7c	-0.03327416
81	0x3c83317d	0.016014809
82	0x3b800856	0.0039072437
83	0x3c99cc15	0.018774072
84	0x3c80f8fa	0.015743721
85	0x3b9c1957	0.004763763
86	0xb901e7fa	-0.00012388817
87	0xbca4f64d	-0.020136977
88	0x3c3a7413	0.011380213
89	0xb9a8752e	-0.00032130763
90	0x3c269a6f	0.010168656
91	0xbc99dd2f	-0.018782226
92	0x3c0d9b7a	0.0086430255
93	0x3cb1036c	0.021608077
94	0xbc9723bd	-0.018449659
95	0x3ceac07a	0.028656233
96	0xbafff959	-0.0019529267
97	0xbcdf939a	-0.027292062
98	0xbcee56fa	-0.029094208
99	0x3bdd0caa	0.0067458944
100	0xbce93b47	-0.028470648
101	0xbc35e203	-0.011101249
102	0xbcd88be9	-0.026433902
103	0xbca6532e	-0.020303335
104	0x3bcc1c28	0.0062289424
105	0xbc036f8f	-0.008022203
106	0xbbec39eb	-0.007209053
107	0xbcc1c330	-0.023652643
108	0xbbbe0f08	-0.0058001317
109	0x3caea443	0.02131856
110	0x3c6b40cf	0.014358713
111	0x3c1455b4	0.009053636
112	0x3c9f46c4	0.019442923
113	0xbc2c8591	-0.010529892
114	0xbc655282	-0.013996722
115	0x3cc259e9	0.023724513
116	0xbcbfe4b5	-0.023424486
117	0x3c81f1f1	0.015862437
118	0xbb4c8e2f	-0.0031212678
119	0x3b2ceed6	0.0026387474
120	0x3c9903f8	0.01867865
121	0xbafe4de6	-0.0019401878
122	0x3bda84f0	0.0066686794
123	0xbbc8996b	-0.0061218045
124	0x3c97cc2e	0.018529978
125	0x3cad8eee	0.021186318
126	0xbcc5e66a	-0.024157722
127	0x3c4d59a3	0.012533578
128	0xbbc40faf	-0.005983315
129	0xbc91be24	-0.017790861
130	0x3c89f33c	0.016839616
131	0xbccb0206	-0.024781238
132	0xbce95a7f	-0.028485535
133	0xbc575f63	-0.013145301
134	0x3c98be91	0.018645557
135	0xbca45f7c	-0.020065062
136	0xbc0b2e74	-0.008494962
137	0x3c9aaac7	0.018880261
138	0xbce4f5b0	-0.027949184
139	0x3c08f3a5	0.008358871
140	0x3c53af74	0.012920249
141	0xbcde8a79	-0.027165638
142	0x3cbc8d40	0.023016572
143	0x3b808e6d	0.0039232285
144	0xbc7ba6d4	-0.015359599
145	0xbc0eafa2	-0.008708866
146	0xbbe3c3f3	-0.006950849
147	0x3c1bc770	0.009507999
148	0xbb72761a	-0.0036996664
149	0xbcf717d6	-0.030162733
150	0xbd0619dc	-0.032739505
151	0x3b727597	0.0036996359
152	0xbd0108af	-0.031502422
153	0x3b807fc3	0.0039214804
154	0x3cee2b3f	0.029073356
155	0x3c42a944	0.011881176
156	0xbca725ae	-0.02040371
157	0xbc0d592b	-0.008627216
158	0xbcde5355	-0.027139345
159	0xbcd7b80d	-0.02633288
160	0x3ba770ff	0.0051099057
161	0x3b3990b0	0.0028315
162	0xbb81ad98	-0.0039574616
163	0xbc3195a5	-0.010838901
164	0xbcb8c1ba	-0.022553314
165	0xbc7e9710	-0.015538946
166	0xbb8cf258	-0.0043013506
167	0xbcea4afb	-0.028600207
168	0x3af767de	0.0018875559
169	0x3cc30dc9	0.023810284
170	0xbc364d36	-0.011126807
171	0xbc9c6ed3	-0.019095814
172	0xbd129da9	-0.035794888
173	0xbc9aaf9d	-0.018882567
174	0x3beb3275	0.007177646
175	0xbbbca11d	-0.005756511
176	0x3c81e744	0.015857346
177	0xbc7b963c	-0.015355643
178	0xbb834803	-0.004006387
179	0x3cba31ef	0.022728888
180	0xbb37dfa9	-0.0028056896
181	0x3cc30722	0.023807112
182	0xbcdbd990	-0.02683714
183	0xbc74dbaa	-0.01494495
184	0xbc308900	-0.010774851
185	0xbc9cdd17	-0.019148393
186	0xbb7d1f62	-0.0038623442
187	0xbca22d9d	-0.01979714
188	0x3c33df72	0.0109785665
189	0x3bd72e2c	0.0065667834
190	0xbbe7fb11	-0.00707949
191	0xbc345963	-0.01100764
192	0xbcbcc2e9	-0.02304216
193	0x3c75370e	0.014966739
194	0xbc596c6e	-0.013270481
195	0x3beffaa4	0.00732358
196	0xbc39b74e	-0.011335207
197	0x3bc36db0	0.0059640035
198	0x3cba5e4e	0.022750046
199	0xbc8d8b64	-0.01727838
200	0x3c9a00bc	0.018799178
201	0xbba5e1a7	-0.0050623002
202	0x3b804846	0.0039148657
203	0x3ad119cb	0.0015953121
204	0x3ba83aac	0.0051339474
205	0xbce7630f	-0.028245477
206	0x3c48e384	0.012261275
207	0x3cbcfd73	0.023070073
208	0x3c0aad30	0.008464143
209	0xbbaa29ef	-0.005192987
210	0x3c2988e0	0.010347575
211	0x3c8f4a1e	0.017491397
212	0x3b6368f8	0.0034700017
213	0xbcc1e2d2	-0.023667727
214	0xbcce7b96	-0.025205415
215	0xba9932ac	-0.0011688075
216	0xbcaa23f6	-0.0207691
217	0xbafba20c	-0.0019198074
218	0x3cb18115	0.021667996
219	0x38d1120b	9.9692574e-05
220	0x3c44ac31	0.012003944
221	0xbc1233ec	-0.008923512
222	0x3c208ca2	0.0097991545
223	0xbc989197	-0.01862411
224	0xbcfc079e	-0.03076535
225	0x3c29b131	0.010357187
226	0x3c40fb97	0.011778734
227	0x3c83a182	0.016068224
228	0xbcfb9206	-0.030709278
229	0xb97c4af3	-0.00024060514
230	0xbc01868d	-0.007905615
231	0xbba6689b	-0.005078388
232	0xbbe0fb22	-0.006865875
233	0xbc78473d	-0.015153703
234	0x3c317710	0.010831609
235	0x3af832dc	0.0018936056
236	0xbb0f94a0	-0.0021908656
237	0xbca7a9ba	-0.020466674
238	0x3c7eba64	0.015547369
239	0x3c65ad8c	0.014018428
240	0x3c6ec0b1	0.014572308
241	0x3c4fad28	0.012675561
242	0xbcb9f8bf	-0.02270162
243	0x3c4a2262	0.012337299
244	0x3c1353f2	0.008992182
245	0xbce59a77	-0.028027756
246	0x3ca243bb	0.019807687
247	0xbcf20c0c	-0.02954676
248	0xbc9104f1	-0.017702552
249	0x3cb00f8f	0.021491794
250	0x3ca67cf2	0.02032325
251	0xbc682db3	-0.014171052
252	0xbcbcea4e	-0.023060944
253	0xbcd754c6	-0.02628554
254	0x3c254be1	0.010088892
255	0xbb98e7a6	-0.0046662865

module.dec1.0.bias f4 [64]
0	0x3bf0941d	0.007341875
1	0x3c9fe857	0.019519968
2	0xbcf5ba2d	-0.029996002
3	0xbca2c2d5	-0.019868294
4	0x3c3e60c3	0.0116197495
5	0x3cde6af8	0.027150616
6	0xbb6466df	-0.0034851355
7	0xbbb67587	-0.0055682096
8	0xbc9376a1	-0.018000903
9	0xbd0accac	-0.033886597
10	0x3b7e21b0	0.0038777404
11	0xb8a85214	-8.0261525e-05
12	0xbca2f08f	-0.019890098
13	0xbcd70499	-0.02624731
14	0x3cffe8c2	0.031238917
15	0x3a327601	0.0006807745
16	0x3bdbe1bb	0.006710259
17	0x3a8fdf32	0.0010976552
18	0x3c945bdd	0.01811021
19	0x3cd0b9f2	0.02547929
20	0xbba893df	-0.0051445807
21	0xbcc40f8c	-0.023933195
22	0xbbc70084	-0.0060730595
23	0x3c21625e	0.009850113
24	0xbcf3f49c	-0.029779725
25	0xbd09926a	-0.033586897
26	0x3c95e07e	0.018295523
27	0x3cb2d41f	0.021829663
28	0x3b5e10be	0.003388449
29	0x3c952e1a	0.01821046
30	0x3cb0e8ee	0.021595445
31	0xbc4f7f46	-0.012664622
32	0x3c7e81ff	0.015533923
33	0x3c305256	0.010761818
34	0xbd1014be	-0.03517603
35	0xbc86a440	-0.016435742
36	0x3c7f8b8e	0.015597237
37	0x3c6dc23f	0.014511644
38	0xbba3699a	-0.004986954
39	0x3bc12f81	0.0058955555
40	0xbbc634c0	-0.0060487688
41	0xbb9ae0e1	-0.0047265147
42	0xbd06f09a	-0.0329443
43	0x3bdece22	0.0067994753
44	0xbc509ba8	-0.012732424
45	0x3c9dfd3b	0.019285789
46	0xbb8d9189	-0.0043203277
47	0xbc8c98a6	-0.017162632
48	0xbaedd126	-0.0018143996
49	0xbc4e53fe	-0.0125932675
50	0x3951e9a6	0.00020018834
51	0x3b94c45d	0.00454001
52	0xbc41515b	-0.011799182
53	0xbca7b31f	-0.020471154
54	0xbc198aba	-0.009371454
55	0xbd0e2a39	-0.034708235
56	0x3c2a259b	0.010384942
57	0xbc9f8bbd	-0.019475812
58	0xbc979cfa	-0.01850747
59	0xbac90007	-0.0015335091
60	0xbce4fae3	-0.027951663
61	0x3b693385	0.0035583687
62	0x3a1e0ef7	0.00060294516
63	0x3aa0116d	0.0012212225

module.dec2.0.weight f4 [1, 64, 3, 3]
0	0x3c9d86f7	0.019229395
1	0x3bd231cb	0.006414627
2	0xbc52069f	-0.012818961
3	0xbc998029	-0.01873787
4	0x3d014994	0.03156431
5	0x3c8062a2	0.015672032
6	0xbce01371	-0.02735302
7	0xbc709bbc	-0.0146855675
8	0x3c4d7174	0.012539256
9	0x3a80addb	0.0009817438
10	0x3cd4e239	0.025986778
11	0x3cc9f390	0.024652272
12	0x3ceac9b1	0.028660627
13	0x3cfb4a17	0.030674977
14	0xbcf5dd1e	-0.030012663
15	0x3c3fd772	0.011709081
16	0xbd368abb	-0.044565897
17	0xbc681ea3	-0.014167461
18	0x3cc3bd2e	0.023893919
19	0xbc74997e	-0.0149291735
20	0xbce1b396	-0.027551454
21	0x3cc4c28a	0.024018545
22	0x3cec58e2	0.028850976
23	0xbc85a867	-0.016315652
24	0x3d37aa59	0.04484019
25	0xbca695e7	-0.02033515
26	0xbca9db65	-0.020734498
27	0x3ca28e65	0.01984329
28	0xbc47f39a	-0.012204075
29	0x3d18814f	0.037232693
30	0x3d1d6385	0.038424987
31	0xbcc7b861	-0.02437991
32	0xbcce5343	-0.025186187
33	0x3ccdf065	0.025139043
34	0x3b319e77	0.002710251
35	0x3c0986d0	0.008393958
36	0x3cf83db6	0.030302864
37	0xbd0b66dc	-0.03403364
38	0x3c420db9	0.011844092
39	0xbcfb3a41	-0.030667426
40	0x3cc188bc	0.02362477
41	0x3d3a8bd2	0.0455435
42	0xbcf02d03	-0.029318338
43	0x3c107922	0.008817943
44	0xbca96455	-0.020677725
45	0x3c8f094e	0.017460492
46	0xbd1d530c	-0.038409278
47	0x3cdd9cfe	0.027052399
48	0xbd00f022	-0.03147901
49	0x3c301389	0.010746845
50	0x3a185788	0.0005811383
51	0xbc9bb5df	-0.019007621
52	0x3ca17d1a	0.019712973
53	0x3c687726	0.014188563
54	0xbd1b34ec	-0.037892267
55	0xbc1cf9ac	-0.009581011
56	0xbc6dc86d	-0.014513117
57	0x3c3f3e41	0.011672557
58	0xbcef2f75	-0.029197434
59	0xbc9759ea	-0.018475492
60	0xbd1689d6	-0.036752544
61	0x3d0c469c	0.034247026
62	0xbd291ac4	-0.04128529
63	0xbc87f469	-0.016596036
64	0xbc81bb4a	-0.015836377
65	0x3c081f36	0.0083082225
66	0xbc86ec20	-0.016470015
67	0xbc81f5b3	-0.015864229
68	0x3c667195	0.014065166
69	0xbc25bf04	-0.010116342
70	0x3c04cb9f	0.008105188
71	0xbcfbf3ce	-0.030755904
72	0x3c475387	0.012165911
73	0xbc1f5f82	-0.009727361
74	0x3c9a09bb	0.018803468
75	0x3b0791b3	0.0020686209
76	0xbcb73c4a	-0.022367615
77	0xbc52956f	-0.012853011
78	0x3bdb5cfb	0.0066944337
79	0x3d3676a8	0.044546753
80	0xbcd60d10	-0.026129276
81	0x3c78adbc	0.01517814
82	0x3cf08437	0.02935992
83	0x3a8a1d76	0.0010537344
84	0xbc204926	-0.009783065
85	0xbbd55f87	-0.006511632
86	0xbb916d82	-0.004438103
87	0xbd099350	-0.033587754
88	0x3bf4a15a	0.0074655237
89	0xbce92e06	-0.028464328
90	0xbcc3d06f	-0.0239031
91	0xbd30ad73	-0.043134164
92	0x3c9ff2f6	0.019525032
93	0x3c2146af	0.009843512
94	0x3cc657b1	0.024211736
95	0xbcac9df3	-0.02107141
96	0xbbae4fe3	-0.005319582
97	0xbcf08676	-0.029360991
98	0x3d1026d3	0.035193276
99	0xbc2de70f	-0.010614171
100	0xbd0158d5	-0.031578857
101	0x3d23314c	0.039841935
102	0xbc92b702	-0.01790953
103	0xbc9aef61	-0.018912973
104	0x3b33859b	0.0027392867
105	0x3ca47373	0.020074582
106	0xbd212ce7	-0.039349463
107	0x3ca8e1d0	0.020615488
108	0x3d598d7c	0.053113446
109	0x3d416dc9	0.04722384
110	0x3b8b3ac0	0.004248947
111	0x3c2ef7ea	0.0106792245
112	0xbbbf061d	-0.005829586
113	0xbbfb00c7	-0.007660005
114	0xbbc5f565	-0.006041216
115	0x3ca88dda	0.020575453
116	0xbcdc1d79	-0.026869522
117	0xbb0e8ed6	-0.0021752617
118	0x3d04d154	0.032426193
119	0xbc944192	-0.018097673
120	0x39987b86	0.0002908373
121	0xbccec03d	-0.02523815
122	0x3c917de8	0.017760232
123	0x3c7610b9	0.015018635
124	0xbc893ed3	-0.01675359
125	0x3ce627f6	0.028095227
126	0x3c78da11	0.01518871
127	0x3caea7c9	0.02132024
128	0x3d010b85	0.031505127
129	0xbca82a25	-0.020527909
130	0x3d098749	0.033576284
131	0xbc766c3e	-0.015040455
132	0x3c4a4ae1	0.012346954
133	0xbcca7ed1	-0.024718674
134	0xba6181d7	-0.00086024165
135	0x3cc45928	0.023968294
136	0xbbf7bf06	-0.0075606136
137	0xbd31477c	-0.043281063
138	0x3c8abe96	0.016936582
139	0x3c235636	0.009969285
140	0x3cfbd658	0.030741856
141	0x3d03f901	0.03221989
142	0x3c8511b1	0.016243787
143	0xbd1e1fe9	-0.03860465
144	0xbcb23392	-0.021753106
145	0x3ce932d1	0.028466614
146	0x3bac0886	0.0052500395
147	0x3cdaa573	0.02669022
148	0x3c91cb6c	0.017797194
149	0x3cd5b8e1	0.026089134
150	0xbd240d74	-0.040051892
151	0xbcf8704a	-0.030326981
152	0xbbca8449	-0.0061803204
153	0x3d124532	0.03571052
154	0x3c03c766	0.008043146
155	0xbc4e430d	-0.012589228
156	0xbccbb114	-0.02486471
157	0xbcfaff33	-0.030639267
158	0x3ca5cbb7	0.02023874
159	0xbc1cbea1	-0.009566934
160	0x3c73b6f4	0.014875162
161	0xbc01da86	-0.007925635
162	0xbc040714	-0.008058328
163	0xbc20b1ed	-0.009808046
164	0x3ca1701e	0.019706782
165	0x3c1eb0b3	0.009685683
166	0x3c86db65	0.016462037
167	0x3bc6bbd7	0.0060648727
168	0xbcff46a5	-0.031161616
169	0xbc335624	-0.0109458305
170	0xbc49bfe1	-0.012313814
171	0x3cb010d2	0.021492396
172	0x3a537bf2	0.00080674805
173	0x3cc5d46b	0.02414914
174	0xbd148bf0	-0.036266267
175	0x3d24d12e	0.04023855
176	0xbc9a5354	-0.018838562
177	0xbccd9a67	-0.025098039
178	0x3d132370	0.035922468
179	0x3b5cc233	0.0033685088
180	0x3a23f5a7	0.00062545616
181	0x3ccfb52f	0.02535495
182	0x3ca7723e	0.020440217
183	0x3c9a9b93	0.018873012
184	0xbca64509	-0.02029659
185	0x3d038903	0.032113086
186	0x3c3d5160	0.011555046
187	0xbcace04d	-0.021103049
188	0x3d02338b	0.031787436
189	0x3c7257c3	0.014791432
190	0xbc8c9ee0	-0.017165601
191	0xbd1f0d9a	-0.03883133
192	0xbc40b680	-0.011762261
193	0xbbc470f4	-0.0059949104
194	0x3c573667	0.013135529
195	0x3d02fa92	0.031977244
196	0xbc1668f7	-0.009180299
197	0xbcf04094	-0.029327668
198	0xbbf18018	-0.0073700063
199	0xbc7218df	-0.014776438
200	0xbcb7ee88	-0.022452608
201	0xbc248161	-0.010040612
202	0xbd1d4392	-0.03839452
203	0x3c890961	0.016728105
204	0xbccece5d	-0.025244886
205	0xbc6cd2fe	-0.014454601
206	0xbcdc24d1	-0.026873024
207	0x3c96b23d	0.018395538
208	0x3bce5b45	0.0062975013
209	0xbcfd213e	-0.03089964
210	0x3c61447e	0.01374924
211	0x3a10316d	0.0005500529
212	0xbc90f3f3	-0.017694449
213	0xbc20cdc4	-0.009814683
214	0xbd02e079	-0.031952355
215	0xbc97af79	-0.01851629
216	0xbc6bfcb0	-0.014403507
217	0xbcfcdbc5	-0.030866513
218	0x3cb0bb40	0.021573663
219	0xbb59407e	-0.0033150013
220	0x3ca2f250	0.019890934
221	0x3d2e039b	0.042483907
222	0xbcc98b44	-0.02460254
223	0x3bbe9cff	0.0058170552
224	0x3c1cf175	0.009579052
225	0xbbf7fb37	-0.007567789
226	0xbd2a8e31	-0.04163951
227	0xbc92a7ce	-0.017902281
228	0x3c40f0b5	0.011776139
229	0xbbda765b	-0.006666941
230	0x3a0c2466	0.0005346
231	0x3cdd19ec	0.0269899
232	0xbd10e80d	-0.03537755
233	0xbd3f3696	-0.046682917
234	0x3d05f91c	0.032708272
235	0xbd03e461	-0.03220022
236	0x3c0692f9	0.008213752
237	0x3d0ae2bf	0.03390765
238	0xbd01a2e1	-0.031649474
239	0xbd30a5de	-0.043126933
240	0x3d1978d4	0.037468746
241	0x3d0e3c0f	0.034725245
242	0x3cdc2bc7	0.026876343
243	0xbc9851c3	-0.018593675
244	0xbcae9546	-0.021311413
245	0xbb3fdc9d	-0.0029275783
246	0xbd067200	-0.032823563
247	0x3cbfeb79	0.023427712
248	0xbc70dab5	-0.014700581
249	0x3c8ed7f4	0.017436959
250	0xbc3d18ef	-0.011541589
251	0xbcb63fdd	-0.02224725
252	0x3d0844f8	0.0332689
253	0x3cef010f	0.02917531
254	0xbd34dcf2	-0.044156022
255	0xbd14f079	-0.036362145
