src/model.pth (torch, 598632 bytes, 7 tensors)

module.enc1.0.weight f4 [64, 1, 3, 3]
-0.25745264 0.26244426 0.053243637 -0.11754591 0.2707263 0.26800948 -0.14044668 -0.15335785
-0.04828259 -0.15389541 -0.04605319 0.34449446 0.10707661 -0.10148973 0.27462384 -0.21451756
0.10880442 0.24848929 0.19596483 0.18274623 -0.2996051 0.2656175 0.27356088 -0.018491013
-0.22545195 -0.19915701 -0.21511887 -0.036777705 0.26206246 0.03862369 0.10009393 -0.13457544
0.1635825 -0.16815603 0.1770578 -0.094846345 -0.1166476 -0.3097848 -0.22131997 0.30587643
-0.20217608 0.1699088 -0.12568249 -0.28570184 0.082078375 -0.12178683 0.24061282 0.30482146
-0.17432553 -0.05860179 -0.2074303 -0.17661962 0.22202575 -0.31743282 -0.3242576 0.11082576
-0.0126746865 -0.25031343 -0.013669224 0.03953416 0.095272616 -0.21150035 -0.29739788 0.010853105
-0.31880927 0.29832536 0.3086785 0.10321204 0.20501575 0.30072454 0.103839666 -0.19496882
-0.11900652 -0.2994345 -0.0050450973 0.19099662 0.044044394 -0.2528141 -0.2639547 -0.32116687
0.12555945 0.19853488 -0.12036799 -0.18867657 0.13698025 -0.24274588 0.034313284 0.17691477
-0.32402536 0.11808332 0.19187883 0.10231632 -0.22416782 0.32859507 0.09869065 0.23651034
-0.11053506 -0.17782046 0.086198926 0.2504125 -0.1385763 -0.08915295 -0.18915063 0.27169266
-0.21737835 0.03512848 -0.037449684 0.13955957 -0.26208693 0.19918479 -0.17291085 0.10396184
-0.0208117 -0.058788743 0.2616225 0.2272697 -0.21486562 -0.11317054 0.2808785 0.24977422
0.3340526 0.2886613 0.2809382 0.044584494 0.032699812 0.039146565 0.0065513537 0.035354026
-0.19511238 0.048112843 0.03605971 0.14236222 -0.2586853 0.22447276 0.07188502 0.12364149
-0.083373204 0.076822795 -0.27651137 -0.21006167 -0.24697271 -0.109345965 -0.1822082 -0.117909804
-0.29260013 0.18776125 -0.13940704 -0.04525744 -0.2619836 0.14290988 -0.1629628 0.081614025
-0.34659326 -0.34533733 -0.23937103 0.28028524 -0.27350062 0.106194146 -0.23305073 -0.12216617
0.21366012 -0.13415655 -0.10552343 -0.10144425 0.13409656 0.045609213 0.025823303 0.26580897
0.27957958 -0.29833993 -0.27021772 0.10761546 0.20556225 -0.27730143 0.03907614 -0.20908107
-0.20029461 -0.22318675 -0.20252745 0.24037421 -0.18928415 0.180137 0.3017233 -0.29571635
-0.21541911 0.037681386 0.08025128 -0.0118166935 -0.25535747 -0.16856411 0.06633867 0.109041
0.035956483 -0.05354112 0.23738925 0.3364434 0.24088031 -0.08476849 0.29227445 0.13334817
0.06695509 -0.23012358 -0.16431612 -0.23055965 -0.08708234 0.028115898 0.13184744 0.3050337
-0.28779387 0.18606152 0.29435536 0.09037257 0.12140688 0.13360073 -0.18369472 0.11613873
0.285107 0.006249506 0.26001078 -0.29362404 -0.013338714 0.1557623 0.086446054 -0.30251005
-0.02498898 -0.28379306 -0.1821924 -0.10724751 -0.26221052 -0.23543985 0.24493985 -0.27482656
-0.00096676504 -0.20110421 0.19685216 -0.09889716 0.076096565 -0.31025973 0.22870308 0.3085677
-0.14268802 -0.20222996 -0.14369456 0.08410304 -0.23630618 0.18035443 -0.19510646 -0.21960996
0.18693298 -0.31945953 -0.2859581 -0.27581468 -0.07601768 -0.3290795 0.08705531 -0.02642885
00000000: d5d0 83be 185f 863e 0016 5a3d e9bb f0bd
00000010: a39c 8a3e 8a38 893e 41d1 0fbe d709 1dbe
00000020: f7c3 45bd c296 1dbe 45a2 3cbd 9461 b03e
00000030: fb4a db3d d9d9 cfbd 7f9b 8c3e 7eaa 5bbe
00000040: dad4 de3d fa73 7e3e 01ab 483e d421 3b3e
00000050: d765 99be 04ff 873e 2c10 8c3e 777a 97bc
00000060: e0dc 66be d1ef 4bbe 1f48 5cbe 38a4 16bd
00000070: 0d2d 863e e033 1e3d 0cfe cc3d 25ce 09be
00000080: 2c82 273e 1831 2cbe a44e 353e cd3e c2bd
00000090: f0e4 eebd 1d9c 9ebe b4a1 62be d69b 9c3e
000000a0: 3f07 4fbe 93fc 2d3e e9b2 00be 8347 92be
000000b0: b518 a83d 606b f9bd 3563 763e 8f11 9c3e
000000c0: 6482 32be 6e08 70bd 9c68 54be c6db 34be
000000d0: b85a 633e 8e86 a2be 1805 a6be 9ef8 e23d
000000e0: 7da9 4fbc 1529 80be e2f4 5fbc 92ee 213d
000000f0: 4a1e c33d 8c93 58be 8944 98be 39d1 313c
00000100: f83a a3be 1abe 983e 1c0b 9e3e d660 d33d
00000110: a6ef 513e 91f8 993e e4a9 d43d e8a5 47be
00000120: b1b9 f3bd 7b4f 99be 5851 a5bb 9e94 433e
00000130: e567 343d da70 81be 1225 87be fc6f a4be
00000140: a892 003e ba4c 4b3e 7e83 f6bd 6e34 41be
00000150: 8d44 0c3e 6092 78be 168c 0c3d 2529 353e
00000160: a7e6 a5be abd5 f13d e27b 443e 388b d13d
00000170: 408c 65be 9d3d a83e 531e ca3d c42f 723e
00000180: 3560 e2bd 9116 36be 1089 b03d 1136 803e
00000190: f2e6 0dbe d295 b6bd b4b0 41be 4d1b 8b3e
000001a0: 6e98 5ebe e2e2 0f3d d764 19bd b4e8 0e3e
000001b0: 4230 86be 19f7 4b3e 8b0f 31be f2e9 d43d
000001c0: 4c7d aabc 77cc 70bd 62f3 853e 63b9 683e
000001d0: bc05 5cbe f5c5 e7bd 4fcf 8f3e d0c4 7f3e
000001e0: f108 ab3e 6acb 933e 22d7 8f3e 3b9e 363d
000001f0: 3df0 053d 2658 203d bdac d63b 62cf 103d
00000200: 8acb 47be f911 453d 59b3 133d 67c7 113e
00000210: 6672 84be 30dc 653e 7438 933d c037 fd3d
00000220: 92bf aabd 4555 9d3d e692 8dbe 681a 57be
00000230: 6ae6 7cbe c7f0 dfbd c994 3abe b27a f1bd
00000240: afcf 95be 7c44 403e b8c0 0ebe de5f 39bd
00000250: b722 86be f856 123e b8df 26be 4125 a73d
00000260: ac74 b1be 0ed0 b0be ae1d 75be 8c81 8f3e
00000270: 4608 8cbe 517c d93d daa4 6ebe 4232 fabd
00000280: b8c9 5a3e 5660 09be ab1c d8bd 01c2 cfbd
00000290: 9c50 093e bad0 3a3d 648b d33c 1d18 883e
000002a0: 0e25 8f3e 03c0 98be fa59 8abe 7f65 dc3d
000002b0: e97e 523e 74fa 8dbe 4d0e 203d 5919 56be
000002c0: 081a 4dbe 118b 64be 5b63 4fbe a824 763e
000002d0: b4d3 41be d575 383e 7a7b 9a3e 2268 97be
000002e0: d496 5cbe cc57 1a3d c85a a43d ce9a 41bc
000002f0: 37be 82be 129c 2cbe 92dc 873d e350 df3d
00000300: 1b47 133d ef4d 5bbd 2b16 733e 4f42 ac3e
00000310: 54a9 763e 1a9b adbd ffa4 953e 6c8c 083e
00000320: c01f 893d 84a5 6bbe 7c42 28be d417 6cbe
00000330: 3a58 b2bd 5053 e63c 0403 073e 612d 9c3e
00000340: b859 93be e986 3e3e bfb5 963e 4115 b93d
00000350: 2ca4 f83d a1ce 083e 781a 3cbe 24da ed3d
00000360: 8bf9 913e a8c8 cc3b 2220 853e e455 96be
00000370: 9f8a 5abc 2780 1f3e a10a b13d 99e2 9abe
00000380: b0b5 ccbc 534d 91be a590 3abe 95a4 dbbd
00000390: 7540 86be 2517 71be 83d1 7a3e 11b6 8cbe
000003a0: 816e 7dba 43ee 4dbe 9d93 493e 988a cabd
000003b0: 84d8 9b3d 5dda 9ebe 2431 6a3e 96fc 9d3e
000003c0: cf1c 12be 5f15 4fbe ab24 13be 373e ac3d
000003d0: 3ffa 71be d5ae 383e fdc9 47be 6fe1 60be
000003e0: 5c6b 3f3e 3390 a3be 1a69 92be 9537 8dbe
000003f0: 28af 9bbd 1c7d a8be 0e4a b23d 5181 d8bc

module.enc1.0.bias f4 [64]
-0.2720333 0.23240314 -0.03721026 -0.20613125 0.1363575 0.32256752 -0.14842972 -0.07720837
0.07637275 -0.27897328 -0.17519918 0.18636167 -0.02097181 -0.0066539887 -0.2807452 0.22990577
-0.18632106 0.14002773 0.32253706 0.11946711 -0.058778763 0.03915986 -0.12094606 -0.30354705
-0.029878473 -0.14764862 -0.06530282 -0.047535866 -0.030230034 0.19679148 -0.04620755 0.071779884
0.06309059 -0.22521336 0.17217793 0.08120442 0.22102694 0.31677052 -0.046441585 -0.07016433
0.09067723 0.246855 -0.3009754 0.32179755 -0.2615292 0.3227203 0.202013 0.20763819
0.1892911 0.32553297 -0.27966002 0.108206816 0.31473458 -0.03095764 -0.16786626 0.29575628
-0.21419653 0.09560396 0.14351767 -0.18869093 -0.112186335 0.026852792 0.28656867 -0.030982254
00000000: f347 8bbe 17fb 6d3e c969 18bd 1214 53be
00000010: 4da1 0b3e 9227 a53e f6fd 17be 6c1f 9ebd
00000020: 5169 9c3d 96d5 8ebe 6a67 33be 98d5 3e3e
00000030: 13cd abbc b409 dabb d6bd 8fbe 6b6c 6b3e
00000040: f3ca 3ebe 6e63 0f3e 9423 a53e 2cab f43d
00000050: 00c2 70bd 1766 203d 91b2 f7bd 856a 9bbe
00000060: b3c3 f4bc 3331 17be 7cbd 85bd f8b4 42bd
00000070: faa4 f7bc b583 493e 2144 3dbd 5501 933d
00000080: a435 813d 559e 66be 694f 303e 814e a63d
00000090: e354 623e bf2f a23e 8839 3ebd 51b2 8fbd
000000a0: fcb4 b93d 8fc7 7c3e 7319 9abe a6c2 a43e
000000b0: 28e7 85be 983b a53e 7fdc 4e3e 1b9f 543e
000000c0: 87d5 413e 42ac a63e 992f 8fbe 899b dd3d
000000d0: e424 a13e e09a fdbc 22e5 2bbe 5e6d 973e
000000e0: 5656 5bbe 02cc c33d 4cf6 123e 3238 41be
000000f0: f3c1 e5bd 63fa db3c 21b9 923e 7fce fdbc

module.enc2.0.weight f4 [128, 64, 3, 3]
-0.008353235 7.936945e-05 -0.01870156 -0.007995045 -0.020650703 -0.0012636104 0.007225805 0.009127347
0.031491738 -0.046512134 0.008206467 -0.009370597 -0.0055381297 -0.040223103 0.003099559 -0.017262766
0.020206153 -0.0021956763 0.028720751 0.0050531807 -0.040079456 -0.026875112 0.02432699 -0.02363911
-0.036852438 -0.025115846 -0.041786954 -0.018448368 -0.0013643957 -0.01659056 0.012621794 0.0038160505
-0.03961005 -0.04252227 -0.015456186 0.024447903 0.020263672 -0.0060713366 -0.037950154 -0.015576243
0.023332372 -0.015842352 -0.015955513 -0.018513827 -0.009586162 -0.041761853 0.029649887 -0.041070018
0.0046470524 0.018846484 -0.0069858776 0.001985915 0.023207359 0.018619787 -0.028486982 0.016911197
-0.0098910155 0.037670814 0.016897786 -0.020547893 -0.02535909 0.0065940693 0.017849274 0.010603711
-0.04271223 0.025368758 0.012386877 -0.018630518 0.011270559 0.012720503 -0.030825775 -0.022163572
-0.034011338 -0.005600974 -0.039131463 0.010375144 0.012612472 0.028983079 0.020289356 0.024727793
-0.022407793 0.019264862 0.04204987 0.04291297 -0.02090695 -0.01916661 0.009965297 0.025311101
0.031508394 -0.032842178 -0.032565873 -0.0271207 -0.011332776 -0.022350658 -0.046414413 -0.016573437
0.0133128315 -0.01720933 -0.030101467 -0.016498785 -0.017175596 0.004996788 -0.0055798558 0.012450924
-0.022436896 0.03039481 -0.020697895 0.0044717174 0.02107971 -0.042256687 0.0098348 0.028375255
0.01845821 0.017099302 -0.003771892 -0.012172694 0.022891045 0.021040782 -0.016362049 -0.041119132
0.001969452 -0.04339294 0.030177422 -0.04587177 0.013830689 -0.03250022 -0.0017898008 0.026487045
-0.021054707 0.024742188 0.040051337 -0.03229782 0.022161944 0.020366637 0.005286132 -0.0018342093
-0.006223161 0.01563203 -0.009584611 0.0019663225 -0.008144987 0.017627444 0.018524105 0.02416473
0.0028792142 -0.015753007 -0.015003022 -0.0032407772 0.01026404 0.014760064 0.026315382 -0.025886415
0.024057299 0.0028610427 0.020524524 0.0039258897 -0.032130416 0.024764705 0.030321063 -0.004151135
-0.036005843 -0.015412444 0.027490377 0.027929856 -0.0025177558 0.0150839435 -0.0071202586 0.009564573
-0.047491305 -0.032460924 0.012988842 -0.0026876421 0.009387154 -0.012370929 0.029283838 -0.0054917787
-0.004109275 0.016893452 0.023650235 0.03143677 -0.020157078 -0.029946262 -0.011250008 -0.022122834
-0.0035201393 -0.0066923 -0.011488903 0.00820585 -0.030776523 -0.04393423 0.026611872 0.0057526827
0.017503556 -0.028208569 -0.046788897 -0.015767304 -0.03363278 0.03144133 -0.038512982 0.024834244
-0.042961285 -0.007229777 -0.043899648 -0.010979278 0.010559615 -0.03633146 -0.021251496 0.023690231
0.017684821 -0.009648193 -0.020626115 0.008481747 0.03202185 -0.010281964 0.023308916 0.027498052
0.0033896696 0.032530267 0.03153288 0.0039842785 -0.041018527 -0.024622723 0.032188628 -0.0345108
0.03093361 0.018242877 0.0026496334 -0.0342863 -0.021561434 0.031609982 -0.028459877 -0.02873286
0.008099932 0.009533595 0.016661389 -0.030011069 -0.027025366 -0.014659651 0.018487696 -0.033192508
-0.03747994 -0.00023919885 -0.0076836077 -0.0060170614 0.015304608 0.026898341 0.02595333 0.024620228
-0.013984167 0.004891618 -0.003788278 -0.01071894 -0.005407781 -0.016510235 0.02109488 -0.0027428283
00000000: 02dc 08bc 2673 a638 0434 99bc a6fd 02bc
00000010: aa2b a9bc bb9f a5ba 72c6 ec3b de8a 153c
00000020: 7bfd 003d 8283 3ebd 6b74 063c 2287 19bc
00000030: 3379 b5bb fbc0 24bd f921 4b3b a56a 8dbc
00000040: 6087 a53c 56e5 0fbb c847 eb3c 2795 a53b
00000050: 5b2a 24bd 3229 dcbc 6549 c73c cfa6 c1bc
00000060: 95f2 16bd bfbf cdbc cc28 2bbd 0821 97bc
00000070: 86d5 b2ba ede8 87bc a4cb 4e3c b416 7a3b
00000080: 263e 22bd d52b 2ebd f13b 7dbc f846 c83c
00000090: 0000 a63c 10f2 c6bb 9f71 1bbd 8033 7fbc
000000a0: 8823 bf3c d2c7 81bc 23b5 82bc 4faa 97bc
000000b0: 470f 1dbc 7a0e 2bbd 52e4 f23c 0939 28bd
000000c0: 4d46 983b f163 9a3c cae9 e4bb 2026 023b
000000d0: 5c1d be3c 8688 983c 885d e9bc 5a89 8a3c
000000e0: ed0d 22bc b64c 1a3d 3a6d 8a3c 0e54 a8bc
000000f0: debd cfbc 1013 d83b a438 923c 30bb 2d3c
00000100: 05f3 2ebd 24d2 cf3c 54f2 4a3c 079f 98bc
00000110: 27a8 383c a869 503c 5686 fcbc 6190 b5bc
00000120: 794f 0bbd 6088 b7bb 5048 20bd 82fc 293c
00000130: 8ba4 4e3c ec6d ed3c dd35 a63c f191 ca3c
00000140: 8c90 b7bc 58d1 9d3c 7c3c 2c3d 83c5 2f3d
00000150: 0d45 abbc 4b03 9dbc 7c45 233c 3a59 cf3c
00000160: f20e 013d 8585 06bd cb63 05bd 3b2c debc
00000170: 1cad 39bc ba18 b7bc 0a1d 3ebd 04c5 87bc
00000180: 101e 5a3c 95fa 8cbc 5a97 f6bc 7628 87bc
00000190: d6b3 8cbc 19bc a33b 39d7 b6bb f6fe 4b3c
000001a0: 95cd b7bc 89fe f83c a28e a9bc 7c87 923b
000001b0: 5baf ac3c 5915 2dbd 2422 213c 3973 e83c
000001c0: ac35 973c d613 8c3c d931 77bb fb6f 47bc
000001d0: 0086 bb3c b85d ac3c b409 86bc 896c 28bd
000001e0: ec11 013b ccbc 31bd a436 f73c 09e4 3bbd
000001f0: 1d9a 623c f31e 05bd c097 eaba 5cfb d83c
00000200: ec7a acbc 21b0 ca3c df0c 243d b84a 04bd
00000210: f78c b53c efd7 a63c 4a37 ad3b da69 f0ba
00000220: a8eb cbbb be0e 803c c608 1dbc 6bdd 003b
00000230: 8d72 05bc 6e67 903c ddbf 973c 1df5 c53c
00000240: 33b1 3c3b 730c 81bc 3ccf 75bc 3863 54bb
00000250: 812a 283c 32d4 713c 5b93 d73c bf0f d4bc
00000260: d013 c53c 5580 3b3b 0c23 a83c c0a4 803b
00000270: 2f9b 03bd 5adf ca3c e163 f83c 3f06 88bb
00000280: dd7a 13bd 7a84 7cbc 8033 e13c 27cd e43c
00000290: ef00 25bb a522 773c 0f51 e9bb bab4 1c3c
000002a0: 3e86 42bd bff5 04bd 27cf 543c 2723 30bb
000002b0: 94cc 193c 70af 4abc a9e4 ef3c 61f4 b3bb
000002c0: 19a7 86bb 2364 8a3c 23be c13c d8c3 003d
000002d0: 7520 a5bc dd51 f5bc f451 38bc f23a b5bc
000002e0: 23b2 66bb 154b dbbb f43b 3cbc d471 063c
000002f0: 0c1f fcbc 61f4 33bd 2401 da3c 0081 bc3b
00000300: 9e63 8f3c a815 e7bc b7a5 3fbd 6f2a 81bc
00000310: 87c2 09bd a0c8 003d cabf 1dbd 2f71 cb3c
00000320: 2cf8 2fbd c4e7 ecbb 1ed0 33bd 6ee2 33bc
00000330: 3c02 2d3c 4cd0 14bd 9e17 aebc 0412 c23c
00000340: c2df 903c 7413 1ebc 19f8 a8bc 06f7 0a3c
00000350: 5829 033d af75 28bc 57f2 be3c 9843 e13c
00000360: 3825 5e3b 753e 053d 9f28 013d 8d8e 823b
00000370: 0b03 28bd 98b5 c9bc 39d8 033d 325b 0dbd
00000380: 7b68 fd3c 1672 953c 79a5 2d3b cb6f 0cbd
00000390: 9ba1 b0bc 7879 013d b024 e9bc 2d61 ebbc
000003a0: 94b5 043c cc32 1c3c 777d 883c c6d9 f5bc
000003b0: 4d64 ddbc 082f 70bc 8273 973c def4 07bd
000003c0: 9184 19bd 74d1 7ab9 c6c6 fbbb c52a c5bb
000003d0: 2ec0 7a3c e959 dc3c 149c d43c 5cb0 c93c
000003e0: d91d 65bc de49 a03b c244 78bb 7e9e 2fbc
000003f0: c133 b1bb 7940 87bc 2bcf ac3c 06c1 33bb

module.enc2.0.bias f4 [128]
5.4756245e-05 0.0073369574 -0.01379186 -0.036437217 0.0024229707 -0.02588429 0.030443901 -0.02401964
-0.017364318 -0.03378666 -0.041099254 -0.006307043 0.022798602 0.02370131 0.014214991 -0.02228613
-0.030898323 -0.03164993 -0.0019425051 0.014483689 -0.0017087522 -0.04480402 -0.035394207 0.0015860022
0.017895153 0.008956099 -0.028419819 -0.030604322 -0.036327522 0.018439222 -0.037049197 -0.0070734317
0.020403134 -0.032538045 -0.015396184 -0.0121434005 -0.014288358 0.0062338826 -0.012536809 0.00055161375
0.0017666109 -0.028361486 -0.019149337 0.0032668216 0.0024797907 0.03763208 0.03560354 -0.008862974
0.026250677 0.034522925 0.009499801 0.03465745 0.03367285 0.018350432 0.010511706 0.0010740018
-0.015283305 0.017571425 0.007133053 -0.03347531 -0.037722856 0.034136843 -0.012638619 0.017365446
0.030746158 -0.043760974 0.020255968 -0.0034012147 -0.023683839 -0.04286641 -0.035153985 -0.040357366
-0.037077907 0.021731345 0.0351377 0.012353706 0.0232151 -0.022400644 -0.010003791 0.020813042
0.028065542 0.0065763136 0.0077977483 -0.023577187 0.021314273 0.025112618 0.017491762 0.036399484
-0.017924545 -0.016394816 0.028304895 -0.005484759 0.029424358 0.020672578 -0.03035948 0.024120467
-0.0053335554 0.03227445 0.022512162 -0.035595123 0.01211313 -0.0039736456 -0.013338367 -0.04528287
-0.01782034 -0.03881194 0.045560777 -0.020479348 -0.014190864 0.0059929667 0.005040272 -0.0041543865
-0.03882551 0.03797872 0.031836785 -0.0006268715 0.0038347468 -0.026606517 -0.019030664 -0.03888267
0.029952193 -0.029382464 0.024529161 0.013804574 0.029867848 -0.0052395635 -0.036793027 0.014471716
00000000: 12aa 6538 dc6a f03b 41f7 61bc 313f 15bd
00000010: b4ca 1e3b 4a0b d4bc 7d65 f93c d6c4 c4bc
00000020: 9d3f 8ebc e163 0abd b157 28bd 50ab cebb
00000030: 22c4 ba3c 4029 c23c fee5 683c 6791 b6bc
00000040: 7b1e fdbc 5ba3 01bd a89b feba ff4c 6d3c
00000050: 36f8 dfba 6c84 37bd 84f9 10bd 67e1 cf3a
00000060: db98 923c 9abc 123c aed0 e8bc eab5 fabc
00000070: 2bcc 14bd da0d 973c e6c0 17bd 3fc8 e7bb
00000080: 7924 a73c 9d46 05bd 4740 7cbc 1df5 46bc
00000090: b819 6abc 9945 cc3b 3067 4dbc 2c9a 103a
000000a0: a08d e73a 5956 e8bc 12df 9cbc 2c18 563b
000000b0: fc83 223b 1924 1a3d 04d5 113d 0236 11bc
000000c0: a90b d73c e967 0d3d 0ea5 1b3c f8f4 0d3d
000000d0: 8bec 093d a553 963c 4a39 2c3c 85c5 8c3a
000000e0: d466 7abc f3f1 8f3c 63bc e93b 681d 09bd
000000f0: 4883 1abd 13d3 0b3d 3612 4fbc fb41 8e3c
00000100: 5edf fb3c b53e 33bd d8ef a53c eae6 5ebb
00000110: 9c04 c2bc b094 2fbd a0fd 0fbd c44d 25bd
00000120: 01df 17bd ef05 b23c 8dec 0f3d 3367 4a3c
00000130: 982d be3c 8e81 b7bc f1e6 23bc 1d80 aa3c
00000140: b5e9 e53c 1e7e d73b 4184 ff3b f224 c1bc
00000150: 459b ae3c fab8 cd3c e24a 8f3c a017 153d
00000160: 7fd6 92bc 6c4e 86bc abdf e73c 7eb9 b3bb
00000170: 5a0b f13c 8a59 a93c 72b4 f8bc 4998 c53c
00000180: 1bc5 aebb 3732 043d 6d6b b83c 31cc 11bd
00000190: 2676 463c 5b35 82bb 2b89 5abc 887a 39bd
000001a0: f6fb 91bc 45f9 1ebd f09d 3a3d 4ec4 a7bc
000001b0: cc80 68bc a660 c43b de28 a53b 8521 88bb
000001c0: 7f07 1fbd 938f 1b3d 4a67 023d a254 24ba
000001d0: 6050 7b3b e9f5 d9bc 32e6 9bbc 6f43 1fbd
000001e0: 4d5e f53c 7eb3 f0bc 61f1 c83c 942c 623c
000001f0: 6bad f43c a5b0 abbb 49b4 16bd c71a 6d3c

module.dec1.0.weight f4 [64, 128, 3, 3]
0.035507947 0.018423831 0.03632476 0.0019301925 -0.011798694 -0.009614539 0.02739525 0.005999789
-0.0001256485 0.015314838 0.0036723353 -0.0062880567 -0.017413873 0.014206473 0.028884144 0.020939406
-0.022239605 -0.021807972 -0.007051346 -0.00094238494 -0.027060725 0.0012240595 -0.030298445 -0.008780868
0.0042928196 0.00781757 -0.011460986 -0.0052202838 -0.013793429 0.024844032 0.022253577 -0.02724032
0.011426343 0.02144445 0.014590762 -0.02043239 -0.021269638 -0.015883533 0.012481623 0.026413752
0.0062059937 -0.008366626 0.017214224 -0.0071525653 -0.010438898 0.020699497 0.012370892 -0.010107902
-0.018495455 -0.007821847 -0.006475146 -0.011291649 -0.0052888812 0.014406696 -0.018476006 0.0062499475
-0.022172533 0.009824441 0.012914124 0.012603289 0.02341006 0.0075844727 0.009975453 -0.020550966
0.024133358 0.005143581 0.022907423 -0.014354458 -0.009801779 -0.014664061 0.017496448 -0.007813523
0.006502882 -0.0035032108 -0.009486269 -0.02182601 0.011921036 -0.019599682 -0.013008787 0.006537398
0.018756166 -0.024910782 -0.0036229866 0.0077057844 0.016796848 0.03104803 -0.024072465 -0.01491404
0.021572566 -0.012680998 -0.012591336 0.029042128 0.01370222 -0.011787994 0.0207763 -0.010461797
-0.020341996 -0.021765463 0.004498117 0.018342977 0.030204717 0.034653466 0.024681116 0.0044858884
0.0065707946 0.019299949 0.030980017 0.03300683 0.010360039 0.009924571 -0.023809802 0.029111717
-0.028917242 -0.003449027 0.006147831 0.012854287 -0.021007204 0.028780539 0.01643515 0.026654802
0.0017755328 -0.027272658 0.0030888277 0.025214856 0.001676002 -0.021621522 -0.009499254 -0.004253841
0.01392096 -0.02147257 0.013643543 0.020402677 0.025611427 -0.024977587 0.010339681 -0.013184922
-0.01123474 -0.025350465 -0.002253058 0.0036592113 0.025423462 -0.011104167 0.0028003915 -0.016242832
0.0018586972 -0.005015852 -0.018589629 -0.029483115 -0.0064602536 0.019462747 0.012953651 -0.0075383293
0.0027502973 -0.029260168 -0.017334806 -0.026081549 0.01817337 -0.016450549 -0.0006935229 0.015954709
-0.01724751 -0.0052205496 0.012266553 0.011404495 -0.010268024 -0.009452249 -0.012296873 -0.006288434
-0.022478316 -0.020415297 0.026345346 0.014778173 -0.012339035 0.0042821 0.0028127683 0.032619603
0.03054318 -0.0018574828 0.03277227 -0.014527026 -0.0064387782 -0.026302727 -3.373008e-05 0.018445842
-0.0202535 -0.0032606884 -0.014293874 0.012166456 0.013824628 0.022737384 0.0069297818 -0.013190046
0.014938357 0.014711581 -0.0063771196 -0.026318355 -0.012896393 0.028652694 0.02365683 -0.01582776
0.024928901 0.024797164 0.012570839 -0.015861666 0.029387644 0.012969091 -0.013613879 0.018981656
0.021134552 0.013599092 -0.023744492 0.019248499 0.00893409 0.018384388 0.004287344 -0.004340827
0.0246296 0.019272784 -0.007066387 -0.013538588 0.016535155 0.013113177 0.008606883 0.009580065
0.0019805438 0.01712363 0.0333117 0.023833117 0.00028749704 0.036224075 0.03620944 -0.00018823944
0.015975673 0.002800068 0.0078004734 0.03232259 0.0026529096 -0.019371802 0.013361722 -0.011849812
0.025276199 0.007719997 -0.006285109 0.028309755 0.015911974 -0.018800976 0.02014354 0.017800797
0.010489472 0.025253164 -0.005617554 -0.020145629 0.0014582052 0.012731107 0.016051693 0.013067122
00000000: c870 113d 93ed 963c 46c9 143d 83fe fc3a
00000010: 4f4f 41bc 4d86 1dbc 016c e03c e199 c43b
00000020: 83c0 03b9 16eb 7a3c 90ab 703b 0b0c cebb
00000030: 8aa7 8ebc 44c2 683c 719e ec3c 1e89 ab3c
00000040: d52f b6bc a2a6 b2bc fa0e e7bb 620a 77ba
00000050: 74ae ddbc 9f70 a03a 7234 f8bc a1dd 0fbc
00000060: c8aa 8c3b 4415 003c dcc6 3bbc ea0e abbb
00000070: d6fd 61bc b685 cb3c 224d b63c 1727 dfbc
00000080: 8e35 3b3c 45ac af3c 170e 6f3c d461 a7bc
00000090: aa3d aebc 2f1e 82bc b97f 4c3c a761 d83c
000000a0: a65b cb3b 2c14 09bc d804 8d3c 1160 eabb
000000b0: e907 2bbc fe91 a93c 48af 4a3c 9d9b 25bc
000000c0: c883 97bc 3427 00bc 762d d4bb 9c00 39bc
000000d0: 5a4e adbb 100a 6c3c fe5a 97bc 5ccc cc3b
000000e0: 2ca3 b5bc b1f6 203c c395 533c 077e 4e3c
000000f0: 74c6 bf3c 2b87 f83b 1570 233c 805a a8bc
00000100: 52b3 c53c 7c8b a83b 59a8 bb3c f62e 6bbc
00000110: a497 20bc 8841 70bc b654 8f3c 4a04 00bc
00000120: 2116 d53b 2096 65bb 4c6c 1bbc 76cc b2bc
00000130: 7350 433c 838f a0bc cf22 55bc ab37 d63b
00000140: 88a6 993c b211 ccbc a16f 6dbb ce80 fc3b
00000150: 8b99 893c 7058 fe3c 9e33 c5bc 055a 74bc
00000160: f3b8 b03c f6c3 4fbc e44b 4ebc c2e9 ed3c
00000170: 477f 603c 6e22 41bc 0f33 aa3c f567 2bbc
00000180: 42a4 a6bc 7c4d b2bc f164 933b 0344 963c
00000190: e26f f73c cbf0 0d3d 0d30 ca3c 5cfe 923b
000001a0: d24f d73b ed1a 9e3c cec9 fd3c 2b32 073d
000001b0: 27bd 293c ab9a 223c c60c c3bc b27b ee3c
000001c0: dae3 ecbc 1209 62bb bf73 c93b ca9a 523c
000001d0: 4d17 acbc 2ac5 eb3c 02a3 863c 2c5b da3c
000001e0: ffb8 e83a e96a dfbc ee6d 4a3b 638f ce3c
000001f0: 4cad db3a 9e1f b1bc c2a2 1bbc ce63 8bbb
00000200: bd14 643c 3ee7 afbc 2b89 5f3c 8423 a73c
00000210: 0ecf d13c cc9d ccbc c467 293c 9205 58bc
00000220: ea11 38bc c7ab cfbc 0aa8 13bb 61cf 6f3b
00000230: dd44 d03c 41ee 35bc c686 373b b00f 85bc
00000240: 879f f33a 045c a4bb 4749 98bc 9386 f1bc
00000250: 89b0 d3bb 5770 9f3c 8d3b 543c 1704 f7bb
00000260: 553e 343b 05b3 efbc b901 8ebc f9a8 d5bc
00000270: 52e0 943c 4dc3 86bc 89cd 35ba 73b3 823c
00000280: a64a 8dbc 2511 abbb a7f9 483c ebd9 3a3c
00000290: 373b 28bc 9bdd 1abc d378 49bc 350f cebb
000002a0: 7224 b8bc fb3d a7bc 32d2 d73c 2620 723c
000002b0: aa29 4abc dc50 8c3b 6c56 383b 229c 053d
000002c0: b135 fa3c c876 f3ba 373c 063d c302 6ebc
000002d0: 63fc d2bb d178 d7bc 6679 0db8 bc1b 973c
000002e0: abea a5bc 46b1 55bb da30 6abc d155 473c
000002f0: b180 623c c043 ba3c 3913 e33b 101b 58bc
00000300: 03c0 743c d808 713c 28f7 d0bb 9799 d7bc
00000310: 654b 53bc 0eb9 ea3c f8cb c13c 38a9 81bc
00000320: b237 cc3c 6c23 cb3c ecf5 4d3c 53f0 81bc
00000330: 5bbe f03c 4f7c 543c bf0c 5fbc 6b7f 9b3c
00000340: 5e22 ad3c bace 5e3c cf83 c2bc 07af 9d3c
00000350: 4a60 123c db9a 963c d97c 8c3b 7f3d 8ebb
00000360: 04c4 c93c f5e1 9d3c 278d e7bb f4d0 5dbc
00000370: bc74 873c a7d8 563c e203 0d3c b4f5 1c3c
00000380: 03cc 013b db46 8c3c d971 083d ab3d c33c
00000390: 33bb 9639 b25f 143d 5a50 143d 2462 45b9
000003a0: 6adf 823c 5881 373b 1d9b ff3b b164 043d
000003b0: 70dc 2d3b 9db1 9ebc 20eb 5a3c b725 42bc
000003c0: 0810 cf3c 07f8 fc3b 51f3 cdbb dce9 e73c
000003d0: d459 823c 8104 9abc 1104 a53c fad2 913c
000003e0: 09dc 2b3c b9df ce3c 7513 b8bb 7208 a5bc
000003f0: 3f21 bf3a 2296 503c d77e 833c 7b17 563c

module.dec1.0.bias f4 [64]
-0.026582792 -0.014743318 -0.03374063 0.011202002 -0.0030625311 0.019031044 -0.00532846 0.00057669677
-0.0024729276 -0.029315155 0.001666414 -0.027997583 0.0065834466 0.015610565 -0.02330177 0.011159763
0.023612952 0.0020811027 0.009825245 -0.011269484 -0.010077712 -0.011826941 0.01922754 0.020964889
-0.024191879 -0.028825605 0.00028424623 0.019040838 -0.0032837857 0.0073633427 0.020044679 0.01037621
-0.030844504 -0.018664733 0.024225768 0.0141413 -0.00861796 0.020149816 0.00013225571 0.013959417
0.022098845 0.0022407293 -0.025797013 0.022412574 -0.00066123565 -0.010634336 -0.021965954 -0.004345624
8.2305785e-05 -0.012137556 0.008011558 0.0037089202 -0.007284374 -0.0019131228 -0.0073980656 -0.03385574
-0.025838876 -0.021699123 0.019212754 0.007822592 -0.0053764996 -0.006913277 -0.017516255 0.016527219
00000000: 28c4 d9bc f58d 71bc 9d33 0abd 9a88 373c
00000010: bfb4 48bb fee6 9b3c 5d9a aebb 772d 173a
00000020: d710 22bb 5626 f0bc 936b da3a 305b e5bc
00000030: f4b9 d73b 75c3 7f3c 5be3 bebc 70d7 363c
00000040: f36f c13c 1c63 083b 10fa 203c a4a3 38bc
00000050: fd1c 25bc c9c5 41bc 1383 9d3c 8fbe ab3c
00000060: 0c2e c6bc ad23 ecbc e206 9539 88fb 9b3c
00000070: c834 57bb 3248 f13b bd34 a43c fb00 2a3c
00000080: 9dad fcbc c8e6 98bc 1e75 c63c e9b0 673c
00000090: 5832 0dbc 3a11 a53c 1fae 0a39 0ab6 643c
000000a0: a308 b53c 33d9 123b 4254 d3bc 939a b73c
000000b0: c656 2dba a33b 2ebc f2f1 b3bc bc65 8ebb
000000c0: 959b ac38 9adc 46bc e942 033c 5b11 733b
000000d0: c2b1 eebb c0c1 faba 796b f2bb 51ac 0abd
000000e0: 0dac d3bc 5cc2 b1bc 1164 9d3c 542a 003c
000000f0: 592d b0bb c588 e2bb 407e 8fbc 1764 873c

module.dec2.0.weight f4 [1, 64, 3, 3]
-0.025690429 -0.021387018 -0.02107028 -0.026068931 0.0019928552 -0.00832679 -0.03728866 0.038874317
0.020711485 0.0014673638 0.006246679 -0.012623412 0.025722856 -0.012186346 -0.034700736 -0.0049119717
0.027483977 0.027384732 0.027860017 -0.040255725 -0.040619705 -0.013203544 0.028955767 -0.013859535
0.017363803 -0.0026180025 0.022321016 0.029749876 -0.010609188 -0.032503866 0.040424023 0.017086744
0.024378192 0.023676068 -0.010686636 -0.034687612 0.016178554 -0.0088453395 0.051931582 0.026217796
0.045671087 0.008337164 -0.04501657 0.023355743 -0.041995313 -0.018066954 0.007060178 0.004214603
0.037955325 0.0069380472 0.034428947 0.027571006 -0.038931414 -0.024693146 -0.012628253 -0.0419191
0.033096448 0.02242716 0.029742815 0.033246066 -0.020336911 0.032205373 0.0006812591 0.02184267
0.037933238 0.0093707815 0.028782181 -0.0003886892 -0.015309296 0.008678523 -0.0144746415 0.0021052784
0.0311117 0.022154473 -0.04199636 -0.032638457 0.03674321 -0.0030557 -0.0064304275 0.0042850203
-0.022590622 0.04332036 -0.034145012 -0.0067861634 -0.03461534 -0.030777685 0.045558937 -0.019164225
0.026889436 0.02280611 -0.008141817 -0.041675903 0.015326855 0.0015724992 0.033031892 0.028881248
0.011540164 -0.030216625 -0.034882568 -0.036636934 -0.030093238 0.034201305 -0.01866395 0.008676425
0.032308668 -0.016333155 0.03240354 -0.028097102 -0.032907095 -0.008148891 0.017017568 -0.031206574
-0.0019117752 0.021463096 0.019205006 0.004556972 -0.027790518 -0.0010161228 0.024225984 -0.009028961
0.046831273 0.00971288 -0.03430181 0.019044008 -0.024906227 -0.031285465 -0.039917164 0.014030948
0.02196852 -0.029940924 0.017942607 -0.014445281 0.030073306 0.02895776 -0.004682412 -0.031579476
-0.004753151 0.0005132035 -0.024040205 -0.016042741 0.017949756 0.0038611284 0.023141505 0.018505888
-0.033928715 0.0009473246 0.021271579 0.0019424444 -0.012005987 0.014515582 -0.030605301 0.026082458
0.020722393 0.024185013 -0.026497079 0.008586769 0.014164429 0.035742052 0.0005617847 -0.021497289
0.006808297 -0.037251957 0.011765548 0.030215884 -0.035362512 0.020570664 -0.0023874503 -0.03483271
0.028980842 -0.009706844 -0.019601228 0.007366593 -0.048752632 -0.045209773 0.005805242 -0.03877951
0.0027315514 0.003706933 0.028822247 -0.0468792 0.019735463 0.035769798 0.015329799 0.024244068
0.033677295 0.023042887 -0.026913539 -0.007021341 -0.03534178 0.002647107 -0.027317146 -0.019060036
0.035415046 0.042913735 -0.01743798 -0.02584919 0.0306157 -0.024972478 -0.02732592 0.0304831
-0.03101006 -0.0006587563 -0.024854545 -0.012518359 -0.021187766 -0.009628668 -0.0024368835 0.030602949
0.01729545 -0.025920829 -0.0018884356 -0.0029292912 0.03556644 0.027804065 0.0053867507 -0.01615359
0.0019745294 0.027113458 -0.023489293 0.0255812 0.0072077266 -0.043830246 0.01145024 0.019134032
-0.024295256 -0.012170529 0.02997921 0.026596088 0.012676028 -0.025627486 0.005278523 -0.002015059
0.022179928 0.0155453 -0.033653077 0.0013679231 -0.021204792 0.04293344 -0.025984667 -0.005278178
0.017521271 -0.020359142 0.022146033 0.0009698623 -0.011488565 0.027643709 0.015785802 -0.029254468
-0.0190178 -0.032042462 -0.023049625 0.019884646 0.0257045 0.009725664 -0.03967025 -0.0020309675
00000000: bc74 d2bc d433 afbc 949b acbc 838e d5bc
00000010: 909a 023b 176d 08bc febb 18bd ad3a 1f3d
00000020: 22ab a93c 8f54 c03a f1b0 cc3b 6dd2 4ebc
00000030: bdb8 d23c 3da9 47bc 5c22 0ebd 9bf4 a0bb
00000040: 1426 e13c f255 e03c b13a e43c 30e3 24bd
00000050: d960 26bd ad53 58bc a534 ed3c 1a13 63bc
00000060: 893e 8e3c cb92 2bbb 90da b63c 03b6 f33c
00000070: 29d2 2dbc c622 05bd a993 253d 80f9 8b3c
00000080: c6b4 c73c 50f4 c13c 0017 2fbc 9914 0ebd
00000090: e388 843c 0bec 10bc 36b6 543d b4c6 d63c
000000a0: 9b11 3b3d 9a98 083c 4b63 38bd 8b54 bf3c
000000b0: 4703 2cbd 2601 94bc 1159 e73b a71a 8a3b
000000c0: 0b77 1b3d 8f58 e33b 5e05 0d3d 97dc e13c
000000d0: 8c76 1fbd 4849 cabc bbe6 4ebc 5db3 2bbd
000000e0: 2490 073d 2ab9 b73c 34a7 f33c 072d 083d
000000f0: 9899 a6bc c8e9 033d 8696 323a 66ef b23c
00000100: e25f 1b3d e887 193c 9cc8 eb3c fbc8 cbb9
00000110: d7d3 7abc 5d30 0e3c 0c27 6dbc b6f8 093b
00000120: f7dd fe3c 4c7d b53c 6004 2cbd e7af 05bd
00000130: 0c80 163d 2442 48bb 56b6 d2bb 5b69 8c3b
00000140: f80f b9bc b170 313d a4db 0bbd 775e debb
00000150: d1c8 0dbd 7c21 fcbc 029c 3a3d 4bfe 9cbc
00000160: 3c47 dc3c e1d3 ba3c 4165 05bc 5ab4 2abd
00000170: 7d1d 7b3c 511c ce3a 734c 073d 5e98 ec3c
00000180: f512 3d3c db88 f7bc 06e1 0ebd 9c10 16bd
00000190: 1886 f6bc ab16 0c3d 24e5 98bc 9027 0e3c
000001a0: 1856 043d 1ccd 85bc 93b9 043d e52b e6bc
000001b0: 97c9 06bd ed82 05bc 6d68 8b3c eea4 ffbc
000001c0: 8894 faba 60d3 af3c d153 9d3c a752 953b
000001d0: f1a8 e3bc 6c2f 85ba 9275 c63c 35ee 13bc
000001e0: 26d2 3f3d c522 1f3c 0e80 0cbd 2e02 9c3c
000001f0: 2508 ccbc 3025 00bd 2e80 23bd 10e2 653c
00000200: 53f7 b33c ab46 f5bc 60fc 923c e6ab 6cbc
00000210: 4b5c f63c d338 ed3c eb6e 99bb 7b59 01bd
00000220: 52c0 9bbb 8188 063a f7ef c4bc 116c 83bc
00000230: 5e0b 933c fc0a 7d3b 4193 bd3c a999 973c
00000240: d6f8 0abd e155 783a bc41 ae3c 9e99 fe3a
00000250: c2b4 44bc c3d2 6d3c f8b7 fabc e1aa d53c
00000260: 02c2 a93c a61f c63c 6710 d9bc 85af 0c3c
00000270: ec11 683c 4266 123d bc44 133a 151b b0bc
00000280: 2218 df3b 8295 18bd 49c4 403c 4d87 f73c
00000290: 48d8 10bd cf83 a83c c576 1cbb beac 0ebd
000002a0: 3b69 ed3c 7409 1fbc c192 a0bc 7663 f13b
000002b0: d7b0 47bd e22d 39bd e639 be3b 43d7 1ebd
000002c0: d403 333b 04f0 723b a21c ec3c 6704 40bd
000002d0: 44ac a13c 5a83 123d d629 7b3c 7f9b c63c
000002e0: 34f1 093d 70c4 bc3c c879 dcbc 4713 e6bb
000002f0: 8bc2 10bd 167b 2d3b 35c8 dfbc cb23 9cbc
00000300: 5e0f 113d 50c6 2f3d 18da 8ebc aec1 d3bc
00000310: c7cd fa3c 1593 ccbc 9cda dfbc b2b7 f93c
00000320: cf08 febc 63b0 2cba c29b cbbc ce19 4dbc
00000330: f791 adbc 90c1 1dbc 1fb4 1fbb 09b3 fa3c
00000340: 30af 8d3c eb57 d4bc 6285 f7ba 5af9 3fbb
00000350: 1eae 113d 5ac5 e33c 5783 b03b 8954 84bc
00000360: 1b67 013b 0b1d de3c 9e6c c0bc aa8f d13c
00000370: cb2e ec3b 5887 33bd ca99 3b3c f9be 9c3c
00000380: d806 c7bc e666 47bc f696 f53c 0ae0 d93c
00000390: 1daf 4f3c bcf0 d1bc 76f7 ac3b 150f 04bb
000003a0: aeb2 b53c b7b1 7e3c cfd7 09bd e24b b33a
000003b0: acb5 adbc fada 2f3d ccdd d4bc 91f4 acbb
000003c0: c588 8f3c 37c8 a6bc 996b b53c 5b3e 7e3a
000003d0: 893a 3cbc 0f75 e23c 3a51 813c 11a7 efbc
000003e0: 38cb 9bbc f53e 03bd 91d2 bcbc 20e5 a23c
000003f0: 3e92 d23c 6458 1f3c 467d 22bd fb19 05bb
